trained_models/PS_S_e=246.ckpt (torch, 737789 bytes, 49 tensors)

model.encoder.in_layer.convs.0.att f4 [1, 1, 64]
0	0xbf1da902	-0.6158601
1	0x3d4506c1	0.048102144
2	0x3e947dce	0.2900223
3	0xbf2a032d	-0.66411096
4	0x3dfdaaf5	0.12386123
5	0xbf28d7ae	-0.659541
6	0x3de867ba	0.11347909
7	0xbf12028a	-0.57035124
8	0x3f88875a	1.0666306
9	0xbecbf6bd	-0.39836684
10	0x3f4cf21a	0.8005692
11	0x3e951e97	0.291249
12	0xbf0c042f	-0.54693884
13	0x3efa0867	0.48834535
14	0xbef69772	-0.4816242
15	0xbf2221b1	-0.6333266
16	0x3f5ecf84	0.87035394
17	0xbd3f5615	-0.046712954
18	0xbe275ddf	-0.16344403
19	0xbf03aedd	-0.51438695
20	0x3e9dfe85	0.30858245
21	0x3eee8a09	0.46589687
22	0xbf85a7e4	-1.0441861
23	0x3e0a3731	0.13497616
24	0xbf411bf6	-0.7543329
25	0xbe56e1c1	-0.20984556
26	0x3ec26844	0.37970173
27	0xbed32667	-0.41240236
28	0xbeeaa599	-0.45829466
29	0xbf0547aa	-0.52062476
30	0xbedfa595	-0.43681017
31	0xbe04b608	-0.12960064
32	0x3d6cd725	0.057822365
33	0x3e3b3935	0.18283542
34	0xbf0123f8	-0.5044551
35	0xbed26ec6	-0.41100138
36	0x3e224479	0.15846433
37	0xbfb592f9	-1.4185477
38	0x3e1cd883	0.15316968
39	0xbece93dc	-0.40347183
40	0xbc063d31	-0.0081933
41	0x3d6ecac5	0.058298845
42	0x3e2be997	0.16788326
43	0xbe9e4879	-0.30914667
44	0x3f529868	0.82263803
45	0x3fa0d9a6	1.2566421
46	0xbf4c66e9	-0.7984453
47	0xbf2f7142	-0.6853219
48	0x3e2de663	0.16982417
49	0x3d883c9b	0.066521846
50	0xbf56d79b	-0.8392274
51	0x3ef27a12	0.47358757
52	0x3ea30872	0.3184238
53	0x3e80b2e1	0.25136474
54	0xbf9b5f1c	-1.21384
55	0x3f0f40de	0.55958354
56	0x3ea81d7c	0.32834995
57	0x3ed4eb63	0.41585836
58	0xbe5c76af	-0.21529649
59	0x3ecb92e9	0.3976052
60	0x3f15b970	0.5848608
61	0x3f3cf0a7	0.73804706
62	0xbf8276ad	-1.0192467
63	0xbf493cbc	-0.786083

model.encoder.in_layer.convs.0.bias f4 [64]
0	0xbe25da58	-0.16196573
1	0x3cf37c88	0.029722467
2	0x3da51b33	0.080618285
3	0x3ea17006	0.3153078
4	0xbda3a8d4	-0.07991186
5	0xbda22211	-0.07916654
6	0x3bcf9a86	0.0063355593
7	0xbdf290f8	-0.11844057
8	0xbe010d70	-0.12602782
9	0x3d28db0f	0.041224536
10	0xbe28216c	-0.16419
11	0xbdad7a7d	-0.084706284
12	0xbccc115a	-0.024910618
13	0xbe847096	-0.25867146
14	0x3cd91394	0.026498593
15	0xbd48a934	-0.04898949
16	0xbdf7949a	-0.120888904
17	0xbe67d37b	-0.22639267
18	0xbeb1ee23	-0.34751996
19	0x3d755f34	0.059905246
20	0x3d30f876	0.0432057
21	0xbe9364a7	-0.2878773
22	0xbe31fa75	-0.17380698
23	0xbead0c38	-0.33798385
24	0xbd2e944a	-0.04262189
25	0x3e44dd30	0.19225001
26	0xbec3c27f	-0.38234326
27	0xbdd6e658	-0.10493153
28	0x3e028377	0.12745462
29	0xbe47797e	-0.1947994
30	0xbe4c8f0f	-0.19976448
31	0xbe311d38	-0.17296302
32	0xbd49474b	-0.049140256
33	0xbe5a7dd6	-0.21337065
34	0xbc8b4d80	-0.017004728
35	0xbec5e5a0	-0.38651752
36	0xbd54f421	-0.051990632
37	0x3e3b1bd1	0.1827233
38	0xbe8741aa	-0.26417285
39	0xbd3d3d96	-0.04620131
40	0xbe08e7af	-0.1336963
41	0xbe84d524	-0.25943863
42	0x3dfa346e	0.122170314
43	0xbe0081bc	-0.1254949
44	0xbe0c1710	-0.13680673
45	0xbcd36287	-0.025803817
46	0x3dbfffaa	0.09374936
47	0xbe3ff676	-0.18746361
48	0xbe89eef9	-0.26940134
49	0xbe74f454	-0.23921329
50	0xbd70f2a6	-0.058825158
51	0xbdf024a0	-0.11725736
52	0x3e1bd0c0	0.1521635
53	0xbcc909f4	-0.024540879
54	0xbe7c547f	-0.24641608
55	0xbe80cf2e	-0.25158066
56	0xbe78d877	-0.24301325
57	0x3e63943c	0.22224516
58	0x3de1495d	0.11000321
59	0xbe0e39a8	-0.13889182
60	0x3e37dcbb	0.17955296
61	0x3da2c362	0.079474226
62	0xbe14111d	-0.14459653
63	0xbe101c34	-0.14073259

model.encoder.in_layer.convs.0.lin_l.weight f4 [64, 6]
0	0x3e7d0278	0.24707973
1	0x3d963bf0	0.07335651
2	0xbe266853	-0.16250734
3	0x3b1824c0	0.0023215264
4	0x3f1884f6	0.5957788
5	0xbef6cfdb	-0.48205456
6	0xbd4bd6b9	-0.049765322
7	0xbd3b0716	-0.045661055
8	0x3e803b5b	0.25045285
9	0xbf1c8e48	-0.61154604
10	0x3e8d8acd	0.2764496
11	0xbeaf6fb3	-0.34264907
12	0xbeb7f733	-0.35930786
13	0xbc01ce73	-0.0079227565
14	0x3dc21053	0.0947577
15	0xbedcae56	-0.43101758
16	0xbf6335a6	-0.88753736
17	0x3eb421b4	0.35181963
18	0xbe5def4b	-0.21673314
19	0x3cb16b06	0.021657478
20	0x3b3218c5	0.0027175408
21	0xbee31d44	-0.44358265
22	0xbf87ecee	-1.061918
23	0xbec77851	-0.38958982
24	0xbe230e03	-0.15923314
25	0xbd8050c4	-0.06265405
26	0x3ebf1e7b	0.37327942
27	0xbf2dd65d	-0.6790522
28	0xbef0aee6	-0.47008437
29	0x3ee7ca51	0.45271543
30	0x3d374ff8	0.044754
31	0x3ee38bf3	0.4444271
32	0xbe3984f0	-0.18117118
33	0x3ef97cdb	0.4872807
34	0xbe1ba871	-0.15200974
35	0x3e058e8d	0.1304266
36	0xbe8384f9	-0.25687388
37	0xbe06b845	-0.13156231
38	0xbe872511	-0.26395467
39	0xbf65eb15	-0.8981183
40	0xbf52e1d2	-0.82375824
41	0x3d365b8b	0.044520896
42	0xbdfbc262	-0.12292935
43	0x3e019e00	0.12657928
44	0x3eb112eb	0.34584746
45	0xbdd899f9	-0.10576243
46	0xbe7b8a95	-0.24564584
47	0x3e1b3072	0.15155199
48	0xbe5737f2	-0.21017435
49	0x3daf61f1	0.08563603
50	0x3ccbb01e	0.024864253
51	0x3e62e05f	0.22155903
52	0x3e35c229	0.17749847
53	0x3f8a349e	1.0797307
54	0x3e5b68fb	0.21426766
55	0x3d0cf740	0.034415483
56	0x3b5af136	0.0033407933
57	0x3fc14cec	1.51016
58	0x3ee1b8b5	0.44086233
59	0x3f1c7a7c	0.61124396
60	0xbd13bcd2	-0.036068745
61	0xbe5fc686	-0.21853074
62	0x3e2ee4cc	0.17079467
63	0xbee885c3	-0.45414552
64	0x3d55fbb6	0.052242003
65	0x3f4af4ff	0.79280084
66	0xbea4ef1a	-0.3221367
67	0x3f0727cd	0.52795106
68	0xbcc770eb	-0.024345836
69	0xbe340494	-0.17579871
70	0x3d1b6f49	0.037947927
71	0xbe425c98	-0.18980634
72	0xbd5f5ae6	-0.054530047
73	0x3eae1351	0.33999112
74	0x3e200303	0.15626149
75	0xbf3c9a55	-0.7367299
76	0xbf4a0712	-0.7891704
77	0xbeed3469	-0.46329048
78	0xbc5d5b53	-0.013510543
79	0xbd9b805a	-0.075928405
80	0xbc1de1ac	-0.009636324
81	0x3e7d4cd2	0.24736336
82	0x3f4e6577	0.80623573
83	0x3f48da24	0.78457856
84	0xbeab174e	-0.33416218
85	0x3ece5f7d	0.40307227
86	0xbea8fb0f	-0.33004043
87	0x3e5c93d8	0.21540773
88	0xbd42a3af	-0.047519382
89	0x3e473a73	0.1945589
90	0x3d682b1b	0.056681734
91	0x3e97f8a8	0.29681897
92	0xbeb76c6e	-0.35824913
93	0x3e48b732	0.19601133
94	0x3ec795c0	0.38981438
95	0xbd988d56	-0.07448833
96	0xbe9054af	-0.28189608
97	0xbe94fb89	-0.29098156
98	0x3df67cf9	0.120355554
99	0x3ed59b75	0.41720167
100	0x3f5c1dde	0.85983074
101	0xbe3e3961	-0.18576576
102	0xbd5b2d40	-0.05350995
103	0xbf0dd50f	-0.55403227
104	0xbe7c7788	-0.24654973
105	0x3e8f965d	0.28044406
106	0x3f047967	0.51747745
107	0x3f793017	0.97339004
108	0xbeb68573	-0.3564869
109	0x3e80b45b	0.251376
110	0x3dcf49e7	0.10121518
111	0x3f483919	0.78212124
112	0x3e12a72b	0.14321582
113	0x38ce490f	9.836454e-05
114	0x3e9f3cd3	0.31101093
115	0x3e979a4b	0.29609904
116	0xbb58bb8c	-0.003307077
117	0xbec65943	-0.38739976
118	0xbf1b4b0e	-0.606614
119	0x3f44a05a	0.7680718
120	0x3e472a48	0.19449723
121	0xbbdf657d	-0.0068175183
122	0xbeb62467	-0.35574648
123	0xbf01d881	-0.50720984
124	0xbf49410a	-0.78614867
125	0xbe0783cc	-0.1323387
126	0x3dedabe3	0.116050504
127	0x3e6eefae	0.23333618
128	0x3cdb4347	0.026765479
129	0x3ee07789	0.43841198
130	0xbe04b87b	-0.12960999
131	0xbeea818d	-0.45801964
132	0x3eb914c8	0.36148667
133	0xbd7651d1	-0.06013662
134	0xbda012bc	-0.07816073
135	0xbe4a0411	-0.19728114
136	0x3f0baa29	0.5455652
137	0xbeb176d6	-0.34660977
138	0xbe04bd46	-0.12962827
139	0xbe28fd5b	-0.16502897
140	0x3e62d579	0.22151746
141	0xbed945be	-0.42436022
142	0x3ecb9e22	0.39769083
143	0xbe88249e	-0.26590437
144	0x3d445767	0.047934916
145	0xbe86e266	-0.26344603
146	0x3ebfee2a	0.37486392
147	0xbeb6b849	-0.35687473
148	0xbef69827	-0.48162958
149	0x3e489508	0.19588101
150	0xbb375b02	-0.002797783
151	0xbe1e1b0d	-0.15440007
152	0xbdbbcc41	-0.09169818
153	0x3e37f743	0.17965417
154	0xbdaed620	-0.08536935
155	0xbbb4e435	-0.0055203685
156	0xbe41f82f	-0.18942331
157	0x3ee7c1c8	0.4526503
158	0x3d740043	0.059570562
159	0x3e3922bb	0.18079655
160	0x3f01a82c	0.50647235
161	0x3d6f3d63	0.058408152
162	0x3e6faf47	0.23406707
163	0xbdcb6143	-0.099306606
164	0xbe0f3716	-0.13985857
165	0x3e9a41f7	0.30128452
166	0x3ee00f42	0.4376164
167	0x3fb8952f	1.4420527
168	0x3e26a75c	0.1627478
169	0xbea2d137	-0.31800243
170	0xbc90bcc4	-0.017668135
171	0x3f6b6ca4	0.9196265
172	0xbf386a24	-0.7203696
173	0x3e695084	0.2278462
174	0xbec59b4c	-0.38595045
175	0xbe570039	-0.20996179
176	0xbce3080a	-0.027713794
177	0x3f1f8545	0.6231273
178	0xbe43e8aa	-0.19131723
179	0x3e30e0fc	0.17273325
180	0x3d728903	0.059212696
181	0x3e368bfd	0.17826839
182	0x3e6bbdab	0.23021571
183	0x3eb96d78	0.3621633
184	0xbf08f79b	-0.53502816
185	0x3ee3179d	0.44353953
186	0xbe6de886	-0.23233232
187	0xbdbb4470	-0.09143913
188	0x3e3dd617	0.185387
189	0x3d29e255	0.041475613
190	0x3f12e8d4	0.5738652
191	0x3ef28216	0.47364873
192	0x3e584848	0.21121323
193	0x3e48e751	0.1961949
194	0xbde968b3	-0.11396923
195	0xbf8146eb	-1.0099767
196	0x3c2e1b0a	0.010626564
197	0x3d878012	0.06616224
198	0xbcda2aa2	-0.026631657
199	0x3ee9a146	0.45630854
200	0xbdc10b60	-0.09425998
201	0xbf039ab6	-0.51407945
202	0x3f258c15	0.64666873
203	0xbefdeb21	-0.49593452
204	0x3d9d473a	0.07679601
205	0x3e82f500	0.25577545
206	0xbe39ebf0	-0.1815641
207	0x3f2afa49	0.66788155
208	0x3f2bdd09	0.6713415
209	0x3f74fa15	0.95694095
210	0x3e89bbc5	0.2690107
211	0x3d5d5866	0.05403938
212	0x3e431561	0.19051124
213	0x3f42c215	0.76077396
214	0xbebeced6	-0.37267178
215	0xbefa46ce	-0.48882145
216	0xbe4aa2be	-0.19788644
217	0xbe9d2533	-0.30692443
218	0x3e437bfb	0.19090264
219	0x3ec4f37f	0.38467023
220	0xbea81492	-0.32828194
221	0x3f35dcc9	0.71040016
222	0x3e8db43a	0.27676564
223	0xbe3efb35	-0.18650515
224	0xbe5f7f0e	-0.21825811
225	0xbf90741d	-1.1285435
226	0x3f18d2fa	0.59696925
227	0xbe77a46b	-0.24183814
228	0xbe0b2b4e	-0.13590738
229	0x3ee08c60	0.43857098
230	0x3e842683	0.25810632
231	0xbf2e3aaa	-0.68058264
232	0xbdd566e3	-0.10420015
233	0xbe444594	-0.19167167
234	0xbe900629	-0.281297
235	0xbe2d3b9c	-0.1691727
236	0x3e221a61	0.15830375
237	0xbf815d11	-1.0106527
238	0x3d27d51a	0.040974714
239	0x3e997bf6	0.29977387
240	0x3e43ce4a	0.19121662
241	0xbe7cc2f6	-0.24683747
242	0x3e1890c2	0.1489897
243	0x3eb58d8d	0.35459557
244	0x3f31572d	0.69273645
245	0x3f1d3b00	0.6141815
246	0x3e5150c5	0.20440967
247	0xbeb7e3e7	-0.35916063
248	0x3e6a6b84	0.22892576
249	0x3f6f4b96	0.9347471
250	0x3f565167	0.8371796
251	0xbe291b7a	-0.16514388
252	0x3e3e9cc6	0.18614492
253	0xbf0d06c1	-0.5508843
254	0x3d11bc0d	0.03557973
255	0xbc69eb77	-0.014277331

model.encoder.in_layer.convs.0.lin_l.bias f4 [64]
0	0x3e1578ac	0.14596814
1	0x3e04b922	0.12961248
2	0xbe77541e	-0.24153182
3	0x3f268f24	0.65062165
4	0xbec5175a	-0.38494378
5	0x3dfed8f0	0.12443721
6	0xbd1f3593	-0.03886945
7	0xbef1755f	-0.4715986
8	0x3e16ec6e	0.14738628
9	0xbe1e06a5	-0.15432222
10	0x3e72a1ec	0.23694581
11	0x3e87c1ca	0.26515037
12	0xbdd181b8	-0.1022982
13	0xbd5d150e	-0.053975157
14	0xbd96c6e0	-0.07362151
15	0x3e136ea5	0.14397676
16	0xbe253f70	-0.1613748
17	0xbf15295b	-0.5826623
18	0xbd9edec1	-0.07757331
19	0x3eaa5199	0.3326538
20	0xbdf2a264	-0.1184738
21	0xbd94fc98	-0.07274741
22	0xbe96e3a9	-0.29470566
23	0xbec5fbae	-0.3866858
24	0xbd26e6d5	-0.040747482
25	0x3efece1e	0.4976663
26	0xbec0c56d	-0.37650624
27	0xbec4856e	-0.3838305
28	0x3f055f49	0.5209852
29	0xbefea080	-0.49731827
30	0xbdd47dd3	-0.103755616
31	0x3c9720ca	0.018448252
32	0x3e2c1256	0.1680387
33	0xbdd712c7	-0.10501628
34	0xbdb1269c	-0.08649942
35	0xbd984a5d	-0.07436059
36	0xbdcce001	-0.10003663
37	0x3db2caba	0.08730073
38	0xbee7cd99	-0.45274046
39	0x3e806190	0.25074434
40	0xbe8bac71	-0.2728
41	0xbf29be54	-0.6630604
42	0x3ed53e8c	0.41649282
43	0x3cefd74e	0.02927747
44	0x3ddc7842	0.10765125
45	0xbe3eeb5d	-0.18644471
46	0x3e93b233	0.28846893
47	0xbead4367	-0.33840486
48	0xbed5ecec	-0.4178232
49	0x3d595605	0.05306055
50	0xbed7984c	-0.4210838
51	0xbc872d4e	-0.016501095
52	0xbe071c13	-0.13194303
53	0x3eab208a	0.33423263
54	0xbf1decd9	-0.61689526
55	0xbf16c490	-0.5889368
56	0xbef5fb45	-0.48043266
57	0x3df133ad	0.117774345
58	0xbe0a98e0	-0.1353488
59	0xbee718a2	-0.4513598
60	0x3efcccbc	0.4937495
61	0x3d6d15e7	0.057882216
62	0xbe6f6285	-0.23377426
63	0xbedb32ed	-0.4281229

model.encoder.in_layer.convs.0.lin_r.weight f4 [64, 6]
0	0xbdb2f84a	-0.08738764
1	0xbce516be	-0.027964946
2	0x3e6378df	0.22214077
3	0xbd31ccf8	-0.043408364
4	0xbd9cdb8a	-0.07659061
5	0x3e9b13f5	0.30288664
6	0xbe8160f8	-0.25269294
7	0xbcf38e2f	-0.029730884
8	0xbefbda47	-0.4918997
9	0x3f40fc00	0.7538452
10	0x3eb8e001	0.361084
11	0xbdb7daef	-0.08977305
12	0xbed40fe4	-0.41418374
13	0x3ea8e2e3	0.329856
14	0x3e947ce2	0.29001528
15	0x3f525493	0.821603
16	0x3eda9a56	0.42695874
17	0xbe929e6b	-0.28636488
18	0x3e45b4c1	0.19307233
19	0xbeaf44b2	-0.34232098
20	0xbeaeb138	-0.34119582
21	0xbf64769a	-0.8924347
22	0x3f1b1985	0.60585815
23	0x3e26ccc4	0.1628905
24	0x3e962445	0.29324546
25	0x3f07d338	0.5305667
26	0xbe3e08f0	-0.18558097
27	0x3eb47860	0.3524809
28	0xbe961390	-0.293118
29	0xbf67b4e6	-0.90510404
30	0xbe905828	-0.28192258
31	0xbab6e557	-0.0013953847
32	0xbe839ced	-0.25705662
33	0xbf167db3	-0.5878555
34	0xbf12732b	-0.5720698
35	0xbeb7ab38	-0.35872817
36	0xbca96876	-0.020679694
37	0x3f100249	0.56253487
38	0x3e38b8d6	0.1803926
39	0x3f49a797	0.78771347
40	0xbecaad2e	-0.3958525
41	0x3e5b3c1d	0.2140965
42	0xbdc75218	-0.09732455
43	0xbe60cce7	-0.21953164
44	0xbed014cd	-0.4064087
45	0x3eb78b01	0.3584824
46	0xbe2d257a	-0.16908827
47	0xbf74ccb9	-0.9562488
48	0xbefc4c39	-0.49276903
49	0xbe793e8e	-0.24340269
50	0x3cd50f0c	0.026008151
51	0x3c99ea5a	0.018788505
52	0xbe45f88a	-0.19333091
53	0x3f237b80	0.6386032
54	0xbe508afd	-0.2036552
55	0x3d6c9cb0	0.057766616
56	0xbe6b00de	-0.2294955
57	0x3f20846b	0.62702054
58	0xbf0729d4	-0.527982
59	0xbec1b6f3	-0.37834892
60	0xbe75e6c0	-0.24013805
61	0xbdfa947e	-0.12235354
62	0x3eab0f5f	0.33410165
63	0x3ebebda0	0.37254047
64	0xbecb8b48	-0.397547
65	0xbe71d42c	-0.23616093
66	0x3eb8faef	0.36128947
67	0xbf21634f	-0.6304216
68	0xbeba64b5	-0.36404958
69	0x3e79f601	0.2441025
70	0xbe2b068a	-0.16701713
71	0x3f321e2b	0.6957728
72	0x3c822581	0.015887024
73	0xbe221d45	-0.15831478
74	0x3ea5b7d4	0.32366812
75	0x3f2725c3	0.65291995
76	0xbd0cc112	-0.034363814
77	0x3dea9b15	0.11455361
78	0xbec64234	-0.38722384
79	0xbd1aa930	-0.037759006
80	0xbc32a06c	-0.010902505
81	0xbf303c77	-0.6884226
82	0x3d6b6868	0.057472616
83	0x3f440fdd	0.76586705
84	0x3d4d0819	0.05005655
85	0x3dc63156	0.09677379
86	0x3cfaa952	0.030598316
87	0xbd342f4e	-0.043990426
88	0xbe6c5998	-0.23081052
89	0xbe018a38	-0.12650383
90	0xbe12cd85	-0.14336212
91	0xbea3de63	-0.32005605
92	0x3dad12f0	0.08450878
93	0x3f7e4b7b	0.99333924
94	0xbebee977	-0.37287495
95	0x3eea4533	0.4575592
96	0x3f32402f	0.69629186
97	0x3f4b2432	0.79352105
98	0xbebe405f	-0.37158486
99	0xbd16a732	-0.036780544
100	0xbf03eb3d	-0.5153082
101	0xbf1a9dab	-0.6039683
102	0x3effe6f7	0.499809
103	0x3da6da24	0.08147076
104	0xbf21d267	-0.63211673
105	0x3ef3ebae	0.47640747
106	0xbe68e355	-0.2274297
107	0x3e7aa2db	0.24476187
108	0x3e4b030a	0.19825378
109	0xbdc53f26	-0.09631185
110	0xbe8623b2	-0.26199108
111	0x3e99842e	0.29983658
112	0xbe81c936	-0.25348824
113	0xbf1b374f	-0.6063127
114	0xbe3fcbba	-0.1873006
115	0x3eae24c0	0.34012413
116	0xbc86bd9e	-0.016447838
117	0x3f4944cd	0.78620607
118	0x3ec73c43	0.38913164
119	0xbf5afef4	-0.8554528
120	0xbe20b531	-0.15694119
121	0x3e52161d	0.20516248
122	0x3b527c97	0.0032117718
123	0x3f6b60d6	0.91944635
124	0xbf32aedf	-0.6979808
125	0xbeefafa3	-0.46813688
126	0x3e0600ed	0.1308629
127	0xbf34aedf	-0.7057933
128	0x3d04e9b6	0.032449447
129	0xbec41c18	-0.38302684
130	0x3f69dd1d	0.9135302
131	0xbf4f143d	-0.80890256
132	0xbf2c703d	-0.6735876
133	0xbde88f9b	-0.113555156
134	0x3ebb9711	0.36638692
135	0x3e07f539	0.13277139
136	0xbe9de60d	-0.30839577
137	0x3ef1c049	0.47217014
138	0x3e7cdbb3	0.24693184
139	0xbe5385dc	-0.20656532
140	0xbebcac62	-0.36850268
141	0xbdd41098	-0.103547275
142	0x3dff089d	0.12452815
143	0x3f775efe	0.9662932
144	0x3e0bc891	0.13650729
145	0xbdf5c577	-0.12000554
146	0xbea0ba60	-0.31392193
147	0xbe9342ad	-0.28761807
148	0x3e8501ab	0.25977835
149	0x3f00d517	0.5032515
150	0x3cbd6cce	0.023123171
151	0xbe570a56	-0.21000037
152	0xbd9d29f9	-0.07674021
153	0x3e57ad69	0.21062244
154	0x3f413dcd	0.75484926
155	0xbd9b23fd	-0.075752236
156	0xbe2d7df3	-0.16942577
157	0xbeed6f63	-0.46374044
158	0xbe2577b8	-0.1615895
159	0xbe3804bb	-0.17970555
160	0xbea30de2	-0.3184653
161	0x3fabd4b0	1.3424282
162	0xbe8e6c12	-0.27816826
163	0xbe886a6e	-0.266437
164	0xbe10a0e6	-0.14123878
165	0xbf4fcadb	-0.8116891
166	0x3f0a2bc9	0.5397306
167	0xbee45608	-0.44596887
168	0xbcd903d4	-0.026491083
169	0x3ea20f80	0.3165245
170	0xbe639df8	-0.22228229
171	0xbe839bf2	-0.25704914
172	0xbf095993	-0.53652304
173	0xbec966f6	-0.39336365
174	0x3f483f3e	0.782215
175	0x3ef618a0	0.48065662
176	0x3e5feb28	0.21867049
177	0x3e32bb35	0.17454226
178	0x3d8ffe30	0.07030904
179	0xbebb60a0	-0.36597157
180	0x3f0d221c	0.5513017
181	0x3d8786e0	0.06617522
182	0xbe363ac7	-0.1779586
183	0x3f172c20	0.59051704
184	0xbc858b47	-0.016301764
185	0xbed49b27	-0.41524622
186	0x3c34085f	0.010988324
187	0x3d2b93f3	0.041889142
188	0xbd3f4989	-0.046700988
189	0xbd1b4674	-0.037908986
190	0x3ee056cf	0.4381623
191	0xbf978e7e	-1.184036
192	0xbe4ff773	-0.20309238
193	0xbe9b3c3b	-0.3031939
194	0xbe4df85a	-0.2011427
195	0x3f588fbf	0.8459434
196	0xbfa4ce74	-1.2875504
197	0x3e9e0098	0.30859828
198	0xbe948525	-0.2900783
199	0x3e9edaa2	0.3102618
200	0xbe1174c8	-0.14204705
201	0x3cffd724	0.031230517
202	0xbed5185f	-0.41620156
203	0xbe8071d7	-0.25086853
204	0xbdb9f954	-0.09080759
205	0xbedfff48	-0.43749452
206	0xbd6b2f31	-0.057418052
207	0xbe600d2c	-0.21880025
208	0x3e2bf74a	0.16793552
209	0xbf594d26	-0.84883344
210	0xbd9d2cd2	-0.076745644
211	0xbc185164	-0.009296749
212	0xbe55ab30	-0.20866084
213	0xbeef1aeb	-0.46700224
214	0xbf97b43f	-1.1851882
215	0xbf1e1af8	-0.617599
216	0xbebaa069	-0.36450508
217	0xbe85027c	-0.25978458
218	0xbe347e75	-0.17626365
219	0x3e9655b7	0.2936227
220	0x3dd3ca26	0.10341291
221	0xbedd7ea8	-0.43260694
222	0x3c2ea35d	0.010659066
223	0xbf3bc32d	-0.7334469
224	0x3e3684e1	0.17824127
225	0x3eb8ff43	0.3613225
226	0xbee039c6	-0.43794078
227	0x3e8a7927	0.27045557
228	0xbd2fef79	-0.04295299
229	0xbe74f781	-0.2392254
230	0xbe45e93b	-0.19327252
231	0x3f687c7e	0.9081496
232	0xbf6b9966	-0.9203094
233	0x3e10aeb2	0.14129141
234	0x3e4e1372	0.20124605
235	0x3d7696b9	0.060202334
236	0x3cd0b0df	0.025474964
237	0xbea4f7ec	-0.322204
238	0x3f7d10cd	0.9885376
239	0xbf23589c	-0.6380708
240	0xbe86e4d6	-0.26346463
241	0x3e81b902	0.25336462
242	0xbeb8b690	-0.36076784
243	0x3e3f18d9	0.18661822
244	0xbf26524f	-0.6496934
245	0xbee99e2c	-0.45628488
246	0xbebc6654	-0.3679682
247	0x3ea08a65	0.31355587
248	0xbe796020	-0.24353075
249	0xbed56feb	-0.4168695
250	0xbe169404	-0.14704901
251	0xbe4ca33f	-0.19984148
252	0x3e7e896d	0.24857111
253	0x3eb7172d	0.3575987
254	0xbe9a9d15	-0.3019797
255	0xbdcbfee8	-0.09960729

model.encoder.in_layer.convs.0.lin_r.bias f4 [64]
0	0x3f300135	0.6875184
1	0xbdca31cb	-0.098727785
2	0x3cd4ca7c	0.025975458
3	0x3e5fe544	0.21864802
4	0xbe08bf52	-0.13354233
5	0xbe88799b	-0.26655278
6	0xbeec2577	-0.46122333
7	0x3e15829a	0.14600602
8	0x3da70098	0.0815441
9	0x3c45824e	0.012054993
10	0x3ebd24d4	0.3694216
11	0x3edfb77b	0.43694672
12	0xbdd40bd3	-0.10353818
13	0x3e3e0e50	0.18560147
14	0x3e8faf8d	0.28063622
15	0xbdd159c1	-0.10222197
16	0x3e514787	0.20437442
17	0xbdf14169	-0.11780054
18	0x3cb5141c	0.022104315
19	0x3e1a3321	0.15058567
20	0xbdf61cfd	-0.12017248
21	0xbd2513e2	-0.040302165
22	0xbe90a43a	-0.28250295
23	0x3ece6df7	0.40318272
24	0x3e2c3bba	0.16819659
25	0xbf12ce69	-0.57346207
26	0x3eaf1ec6	0.34203166
27	0x3edceb37	0.43148205
28	0xbeaa4213	-0.33253536
29	0xbe316550	-0.17323804
30	0xbe8fd49f	-0.28091905
31	0x3e4c1f8d	0.1993391
32	0xbf3642a1	-0.7119542
33	0x3e6ab6d6	0.22921309
34	0x3f1046ac	0.56357837
35	0x3e15a522	0.14613774
36	0xbe9bad4c	-0.30405653
37	0xbf44655c	-0.7671716
38	0xbec08d13	-0.3760763
39	0x3e9b0127	0.30274317
40	0xbbe9cd66	-0.007135081
41	0xbed39e52	-0.41331726
42	0x3d712665	0.058874507
43	0x3ec16b34	0.37777102
44	0xbf194810	-0.59875584
45	0x3dbdb318	0.09262675
46	0xbf260fa9	-0.64867646
47	0x3eea3862	0.45746142
48	0xbe102d3e	-0.14079759
49	0xbd28647b	-0.04111145
50	0x3e6b9349	0.23005404
51	0xbed22cd8	-0.41049838
52	0xbe0af371	-0.13569428
53	0xbf25bdba	-0.64742625
54	0x3eb1720c	0.34657323
55	0xbd59a3cf	-0.053134736
56	0xbf2e7dcc	-0.681607
57	0xbf065ef1	-0.5248862
58	0x3f3289cf	0.6974153
59	0xbe819594	-0.25309432
60	0x3dda567c	0.10661027
61	0x3f227169	0.634543
62	0x3e175112	0.1477702
63	0xbe1c8b9a	-0.15287629

model.encoder.in_layer.convs.1.att f4 [1, 1, 64]
0	0xbec78809	-0.38970974
1	0x3e2a039e	0.16602942
2	0x3f3d7809	0.74011284
3	0x3e89b976	0.26899308
4	0x3ecaa5b9	0.3957956
5	0xbeed9366	-0.4640152
6	0xbec64100	-0.38721466
7	0x3f1ff477	0.624824
8	0x3f647825	0.89245826
9	0xbea8ace8	-0.32944417
10	0x3f47eb64	0.7809355
11	0x3f81ecc2	1.0150378
12	0xbf03b7a0	-0.51452065
13	0xbf4f3c55	-0.80951434
14	0x3e146ce5	0.14494665
15	0xbf0bcf6c	-0.54613376
16	0x3f57541f	0.84112734
17	0xbf0a4a98	-0.5402007
18	0xbfb8a304	-1.4424748
19	0xbf05d2a2	-0.52274525
20	0xbf1ebcb1	-0.6200667
21	0xbe73797a	-0.23776808
22	0xbf1c33b3	-0.61016387
23	0x3f01a8f4	0.50648427
24	0xbf6ef70d	-0.9334572
25	0xbf3e5ba5	-0.7435859
26	0x3fb1e8f5	1.3899218
27	0x3f073a51	0.5282336
28	0x3d448e5f	0.04798734
29	0xbe321757	-0.17391716
30	0xbf08c675	-0.5342782
31	0xbf44962a	-0.7679163
32	0xbf2d7b23	-0.67766017
33	0x3ec449dd	0.38337603
34	0x3f3df827	0.74206775
35	0x3e0c2ba8	0.13688529
36	0x3f0369da	0.5133339
37	0x3f450ae4	0.7696974
38	0x3f301f19	0.6879745
39	0x3f8a346e	1.079725
40	0xbc73a43c	-0.0148706995
41	0xbfaba3ca	-1.340936
42	0x3f078597	0.52938217
43	0x3e2f08a7	0.17093144
44	0xbf7168b0	-0.94300365
45	0x3fba991a	1.4577973
46	0xbf1f9889	-0.62342125
47	0xbe6c527b	-0.23078339
48	0x3ea93a19	0.33052137
49	0xbf1ece89	-0.620339
50	0xbdc11c86	-0.094292685
51	0xbf3ca7b9	-0.73693424
52	0xbe1d331c	-0.15351528
53	0xbf1787f0	-0.591918
54	0x3f47f612	0.7810985
55	0x3f87a9aa	1.0598652
56	0x3f525c46	0.8217205
57	0xbec2bf66	-0.3803665
58	0x3f74266d	0.95371133
59	0x3f21b557	0.6316733
60	0xbf2ae03c	-0.66748405
61	0x3f31fb12	0.6952373
62	0xbe80505d	-0.25061312
63	0xbe86b926	-0.26313132

model.encoder.in_layer.convs.1.bias f4 [64]
0	0xbe876033	-0.26440582
1	0x3d807096	0.06271474
2	0xbdffaa6a	-0.12483676
3	0xbcb1dc76	-0.02171157
4	0x3d65fd95	0.056150038
5	0xbdea3394	-0.11435619
6	0xbeb3f56e	-0.35148185
7	0x3d66084f	0.056160267
8	0xbe6c38d7	-0.23068558
9	0xbdb5a765	-0.088698186
10	0x3d0daa25	0.03458609
11	0xbe13af56	-0.14422354
12	0x3d03f3c9	0.032214914
13	0xbe85e511	-0.26151326
14	0x3e18e206	0.14929971
15	0xbe51708e	-0.20453092
16	0x3d966284	0.07343009
17	0xbd37209a	-0.044708826
18	0xbd692860	-0.05692327
19	0xbb252a53	-0.002520223
20	0xbb50f17e	-0.0031882222
21	0x3dcbd983	0.099535964
22	0xbe03f98d	-0.12888165
23	0xbd34dd9a	-0.04415665
24	0xbe19b24e	-0.15009424
25	0x3e393310	0.18085885
26	0xbc637611	-0.01388313
27	0xbd27ece8	-0.040997416
28	0xbe23e9c4	-0.16007143
29	0x3dbba679	0.091626115
30	0xbe28eece	-0.16497347
31	0x3e00b55f	0.12569188
32	0xbe35a868	-0.17740023
33	0x3e346891	0.17618014
34	0xbda0ee7a	-0.07857986
35	0xbe08e00c	-0.13366717
36	0x3e5b4807	0.21414195
37	0x3c8b88a0	0.017032921
38	0x3e838f03	0.25695047
39	0xbe6cc1db	-0.23120825
40	0xbe27ae1e	-0.16375014
41	0xbd70b70f	-0.05876833
42	0x3d0f516b	0.034989756
43	0x3c3be839	0.01146894
44	0x3d4b7d13	0.049679827
45	0x3c6f6a05	0.014612679
46	0xbeff3a70	-0.49849272
47	0xbd247b96	-0.040156923
48	0x3d1084ec	0.035283014
49	0x3e4ab241	0.19794561
50	0xbbcc59d2	-0.0062362934
51	0xbe7af7e0	-0.2450862
52	0x3e090063	0.13379054
53	0xbe82a0e6	-0.2551338
54	0x3e4e719d	0.20160528
55	0xbdb3fc56	-0.08788364
56	0x3b37503d	0.002797141
57	0x3df94456	0.12171237
58	0xbde7e5c5	-0.11323122
59	0x3ca9b9c3	0.02071846
60	0x3d8dde4e	0.06927167
61	0x3d1745d1	0.036931816
62	0xbe5e4d2f	-0.2170913
63	0x3a02eed8	0.0004994697

model.encoder.in_layer.convs.1.lin_l.weight f4 [64, 64]
0	0xbf1aacea	-0.60420096
1	0xbd5e1344	-0.054217592
2	0xbe30c321	-0.17261936
3	0xbeb0aeaa	-0.34508258
4	0xbd0f7b16	-0.035029493
5	0xbf48282c	-0.781863
6	0x3e4750a5	0.19464357
7	0x3cc465ab	0.02397426
8	0xbda6a4f5	-0.08136932
9	0xbe215a3f	-0.15757082
10	0x3e66d5d2	0.22542503
11	0xbc86afaf	-0.016441194
12	0xbe2f6293	-0.17127447
13	0x3eac98ce	0.3371033
14	0xbe1319ea	-0.14365354
15	0xbde4807b	-0.11157318
16	0x3e987c85	0.297825
17	0xbdc01a49	-0.093800135
18	0x3d90deb6	0.07073729
19	0xbf4bf4b6	-0.79670274
20	0xbe8727e8	-0.26397634
21	0xbe646505	-0.22304161
22	0x3ccaaf26	0.02474172
23	0x3e8227e9	0.25421074
24	0x3dc3be95	0.09557835
25	0x3e4d9b70	0.20078826
26	0xbeb3ac09	-0.3509219
27	0x3e601df4	0.21886426
28	0xbee5f1bd	-0.44910994
29	0x3e249d61	0.1607566
30	0xbe5d8e61	-0.21636344
31	0x3c38add1	0.01127191
32	0xbe9d744e	-0.30752796
33	0xbef4dbf8	-0.47824073
34	0xbe56d0e8	-0.20978129
35	0xbe7462cd	-0.23865815
36	0x3e257687	0.16158496
37	0xbf44128b	-0.76590794
38	0xbee328d5	-0.4436709
39	0x3df8c907	0.12147718
40	0x3e74c67c	0.23903841
41	0x3d55ee56	0.052229248
42	0xbe488aa8	-0.19584143
43	0xbf15a258	-0.5845084
44	0xbef8c51e	-0.48587888
45	0x3c32a92b	0.010904591
46	0xbec16071	-0.3776889
47	0x3e00fc36	0.12596211
48	0xbd8b8bd8	-0.068137825
49	0xbe03065a	-0.12795392
50	0xbee58bb5	-0.4483315
51	0xbd5b1907	-0.053490665
52	0xbd916d55	-0.071009316
53	0x3d19b2da	0.03752408
54	0xbea2bccd	-0.3178467
55	0xbe173680	-0.14766884
56	0xbeb8740f	-0.36026046
57	0x3de82f78	0.11337179
58	0xbd180bb4	-0.037120536
59	0xbed888fc	-0.4229201
60	0xbddee555	-0.10883585
61	0xbf73def2	-0.9526206
62	0x3d623af0	0.05523199
63	0x3df78712	0.120863095
64	0x3ec2b389	0.380276
65	0x3e7f78b8	0.24948394
66	0xbed4ee45	-0.41588035
67	0xbf252e2e	-0.6452359
68	0xbe68bab3	-0.2272747
69	0xbe8ac95a	-0.27106744
70	0xbe4f5ec4	-0.20250994
71	0x3d637b3c	0.055537447
72	0xbdc9ffcb	-0.09863242
73	0xbe8cf6c5	-0.2753202
74	0xbe2fe9e9	-0.17179073
75	0x3da787bc	0.08180186
76	0xbea047a5	-0.3130466
77	0xbd364f10	-0.044508994
78	0x3d226dab	0.03965537
79	0x3df00edf	0.117215864
80	0x3e82b95f	0.25532052
81	0x3d9bccaa	0.07607396
82	0x3dcb296d	0.09920011
83	0xbee39a7c	-0.444538
84	0xbe6eea0f	-0.23331474
85	0x3d6cdda7	0.05782857
86	0x3e26dd68	0.16295397
87	0x3d27a090	0.04092461
88	0xbe86de4a	-0.26341468
89	0xbcf21962	-0.02955312
90	0x3eb1386f	0.34613368
91	0x3e206275	0.15662558
92	0xbe55a19c	-0.2086243
93	0xbd86afc9	-0.06576497
94	0xbe085935	-0.1331528
95	0xbbe6002c	-0.0070190635
96	0xbc6a4d0b	-0.014300595
97	0x3ea540e0	0.32276058
98	0x3cef9257	0.029244585
99	0x3e5b5bf7	0.214218
100	0x3eca2042	0.39477736
101	0x3e52660d	0.20546742
102	0x3d9e1171	0.077181704
103	0xbeae23f8	-0.34011817
104	0x39dd6ce5	0.00042233538
105	0x3d8a3ef0	0.067502856
106	0x3ef45379	0.47719935
107	0x3e8846fe	0.26616663
108	0xbddf9c50	-0.10918486
109	0x3d32656e	0.043553762
110	0x3eb9b729	0.36272553
111	0x3dc8aed0	0.09798968
112	0x3ef9463a	0.4868639
113	0x3dd5cf74	0.10439959
114	0xbd6111fd	-0.054948796
115	0xbe03546d	-0.12825175
116	0x3e856c7e	0.26059335
117	0x3ecb85b6	0.3975045
118	0xbf013aae	-0.50480163
119	0xbc7c06fe	-0.015382526
120	0xbe60201e	-0.21887252
121	0xbf0029f6	-0.5006403
122	0x3ed458a6	0.41473883
123	0xbc91b399	-0.017785834
124	0x3e9f0e22	0.3106547
125	0xbecfabd0	-0.4056077
126	0x3c997ad5	0.018735329
127	0xbd9b6b1e	-0.0758879
128	0x3cb112fa	0.021615494
129	0xbfb6f190	-1.4292469
130	0x3e365bd1	0.17808463
131	0x3e091db8	0.13390243
132	0xbdb14ee1	-0.08657623
133	0x3e82f0a8	0.2557423
134	0x3d0b3cae	0.033993416
135	0xbe9f5f02	-0.31127173
136	0xbdb4e5a2	-0.088328615
137	0xbf6c197b	-0.9222638
138	0xbd838c32	-0.064232245
139	0x3e6aaefd	0.22918315
140	0xbe57f043	-0.21087746
141	0xbf73bcf9	-0.95210224
142	0x3db24165	0.08703879
143	0xbdc5da11	-0.096607335
144	0x3e682174	0.22669011
145	0xbdd9e966	-0.1064022
146	0xbd36c06b	-0.044617098
147	0xbe752923	-0.23941474
148	0xbe4f5d2e	-0.20250389
149	0x3e5a99a7	0.21347676
150	0x3e3d8e4b	0.18511312
151	0xbe8b93a3	-0.27261075
152	0xbed71be8	-0.42013478
153	0x3d4e476d	0.050361086
154	0xbe5a410d	-0.21313877
155	0xbec4b1e2	-0.38416964
156	0xbdc4cb93	-0.09609141
157	0x3eb83b49	0.3598273
158	0xbf4db363	-0.8035185
159	0xbe504736	-0.20339665
160	0xbe418c94	-0.18901283
161	0xbe3945ac	-0.18092984
162	0x3cfdc72f	0.030978767
163	0x3cb651f7	0.02225588
164	0x3ea2f1cf	0.3182511
165	0xbebb6cd4	-0.36606467
166	0x3d8b81b4	0.06811848
167	0xbdb8822a	-0.09009202
168	0xbea688d2	-0.3252626
169	0x3db68aea	0.089132145
170	0xbe9ad6ce	-0.30242008
171	0x3edb39e6	0.4281761
172	0xbe072d75	-0.13200934
173	0x3eb78e56	0.3585078
174	0xbe7cd03f	-0.24688815
175	0xbf31a86d	-0.6939762
176	0xbe8fb2b7	-0.28066036
177	0x3e7e5e26	0.24840602
178	0x3eaa38bd	0.33246413
179	0xbf0dacef	-0.55342
180	0x3e056f07	0.13030635
181	0x3d10e568	0.03537503
182	0x3d47e0eb	0.048798483
183	0x3e8a3caa	0.26999408
184	0xbeb8f298	-0.36122584
185	0x3e79e9b5	0.24405558
186	0x3ef91eea	0.48656398
187	0x3e57731a	0.21040002
188	0x3d9cb1d0	0.076511025
189	0x3e4cf724	0.20016152
190	0x3e029bac	0.12754697
191	0x3d422ce0	0.047406077
192	0x3e0f4eab	0.13994853
193	0x3df06518	0.11738032
194	0x3ebdf843	0.3710347
195	0xbe48e211	-0.19617487
196	0xbee0071f	-0.43755433
197	0xbf3b50d0	-0.73170185
198	0x3e71fea9	0.23632301
199	0xbef1b1b6	-0.47205895
200	0x3e79d187	0.24396335
201	0x3e08b024	0.13348442
202	0x3d25a06f	0.040436205
203	0x3dce0288	0.100590765
204	0xbd788362	-0.06067217
205	0x3e9bf4a4	0.30460083
206	0xbe7372f9	-0.23774327
207	0xbdf14258	-0.11780232
208	0x3cfa37f7	0.030544264
209	0xbef5bfa8	-0.47997785
210	0xbda07449	-0.0783468
211	0xbe7e6486	-0.24843034
212	0x3df1ea20	0.11812234
213	0xbda035f2	-0.07822789
214	0x3e4def19	0.2011074
215	0xbcf51109	-0.02991535
216	0xbe495c30	-0.19664073
217	0x3d986f11	0.07443059
218	0xbdb608c0	-0.08888388
219	0xbe4edadf	-0.2020068
220	0xbded8e1a	-0.11599369
221	0xbeb142f2	-0.34621388
222	0xbf0e0dfe	-0.554901
223	0x3e1e44bc	0.15455908
224	0xbc079f28	-0.008277692
225	0xbd0e6ea3	-0.03477348
226	0xbf8396ee	-1.0280435
227	0x3d234541	0.039860968
228	0x3cc0a157	0.023514433
229	0xbe1c88fc	-0.1528663
230	0xbf098aae	-0.53727233
231	0xbd5e69cf	-0.054300126
232	0x3da5b5c0	0.08091307
233	0x3edcd50e	0.43131298
234	0x3ea3e2ba	0.32008916
235	0x3e32e2a8	0.17469275
236	0xbea42f48	-0.32067323
237	0xbd1e45e0	-0.038640857
238	0x3d29e21a	0.041475393
239	0xbf0de0d8	-0.5542121
240	0x3d6fd1e0	0.05854976
241	0x3e25a860	0.16177511
242	0xbec0c8bb	-0.37653145
243	0x3e872e60	0.2640257
244	0x3e6447f7	0.22293077
245	0x3e1ad4a3	0.15120177
246	0x3e8b4e1a	0.27208024
247	0x3c440de2	0.011966201
248	0x3e965f1f	0.29369447
249	0x3e5a8ac9	0.21342005
250	0xbb8bc2dc	-0.0042651724
251	0xbea760f7	-0.32691166
252	0x3eb1b775	0.3471028
253	0xbdfd920f	-0.12381374
254	0xbf055612	-0.5208446
255	0xbf08c245	-0.5342143

model.encoder.in_layer.convs.1.lin_l.bias f4 [64]
0	0xbe8e0f32	-0.27745968
1	0x3d597c92	0.053097315
2	0xbe0f4e7e	-0.13994786
3	0xbda0cbf4	-0.07851401
4	0x3d884eee	0.0665568
5	0xbe0de4bf	-0.13856791
6	0xbef26fb7	-0.47350857
7	0x3e096587	0.13417636
8	0xbe06c673	-0.1316164
9	0xbdc6279e	-0.09675525
10	0x3c48e98a	0.012262711
11	0xbd85679c	-0.065139025
12	0x3e12ecf8	0.14348209
13	0xbe5f2d2a	-0.21794572
14	0x3e09c164	0.13452679
15	0xbe422c8f	-0.1896231
16	0x3de8caf1	0.11366833
17	0xbb614258	-0.003437182
18	0xbe106131	-0.14099576
19	0xbcdbe0f2	-0.02684066
20	0xbdbfe9b4	-0.09370747
21	0x3e1a8336	0.15089116
22	0xbe2ba4b0	-0.16762042
23	0xbde700da	-0.11279459
24	0xbe12c602	-0.14333346
25	0x3e3f1a0e	0.18662283
26	0xbd8ae1e1	-0.06781364
27	0x3cae9004	0.021308906
28	0xbe85d874	-0.26141703
29	0x3e1cb8ae	0.15304825
30	0xbe804b63	-0.25057516
31	0x3e4bb852	0.19894531
32	0xbdf58065	-0.1198738
33	0x3e8e598b	0.2780269
34	0x3cac8b4a	0.021062512
35	0xbe731687	-0.23739062
36	0x3ea0daf5	0.3141705
37	0xba89a0c1	-0.0010500179
38	0x3ebff0a4	0.37488282
39	0xbeabf164	-0.33582604
40	0xbe291cdd	-0.16514917
41	0xbe28919f	-0.164618
42	0x3d0e4d8c	0.034741923
43	0x3dcd9897	0.1003887
44	0x3e1c12c9	0.15241541
45	0xbd0d9228	-0.034563214
46	0xbe75dc54	-0.2400983
47	0x3d130485	0.035892982
48	0x3d6a24c1	0.057163958
49	0x3e18cab7	0.1492108
50	0x3d9f7290	0.07785523
51	0xbeb568b0	-0.35431433
52	0x3d8b215b	0.067934714
53	0xbe612491	-0.21986605
54	0x3e96d2ac	0.29457605
55	0xbe2e2047	-0.170045
56	0x3dc4d2dd	0.096105315
57	0x3d9a634a	0.07538469
58	0xbdc8d1b3	-0.09805622
59	0x3d40684e	0.046974473
60	0x3d6cd5b3	0.057820987
61	0xbc09fa00	-0.008421421
62	0xbe1851f2	-0.1487501
63	0x3d7cfc32	0.06176395

model.encoder.in_layer.convs.1.lin_r.weight f4 [64, 64]
0	0x3bb4adb4	0.005513871
1	0x3e10338a	0.1408216
2	0xbebccfe0	-0.36877346
3	0x3ee1a54e	0.4407143
4	0x3dd39ebe	0.10333012
5	0x3e86e16b	0.26343855
6	0xbf114a8a	-0.5675436
7	0xbe82c0bc	-0.2553767
8	0xbe943a61	-0.2895079
9	0xbe1c1c13	-0.15245084
10	0x3d1947e6	0.037422083
11	0xbd12aa9d	-0.03580724
12	0x3eb17056	0.34656018
13	0x3e0d5636	0.13802418
14	0xbdc22a0b	-0.09480675
15	0x3e762142	0.24036124
16	0x3e0b7d62	0.13622048
17	0xbeca4161	-0.39503005
18	0xbb7877ac	-0.0037913127
19	0x3e80fff3	0.25195274
20	0x3d01c4d2	0.031681843
21	0xba6df54b	-0.0009077384
22	0x3ec013f3	0.3751522
23	0x3eab9470	0.33511686
24	0xbe04d1bc	-0.12970632
25	0xbe38aed0	-0.18035436
26	0xbe9a4583	-0.30131158
27	0xbea0e7bb	-0.31426796
28	0xbe19c31c	-0.15015835
29	0x3e8f5785	0.2799646
30	0xbe9baa55	-0.3040339
31	0x3ca3887e	0.019962545
32	0x3f2549c5	0.6456569
33	0x3e20494d	0.15652962
34	0x3f1f3a15	0.62198
35	0x3d1e62a8	0.038668305
36	0x3e346167	0.17615281
37	0x3f622c19	0.8834854
38	0x3de4f9a4	0.11180428
39	0x3ea8d98c	0.32978475
40	0xbdd5b770	-0.104353786
41	0xbe3ded43	-0.1854754
42	0x3e0e0816	0.13870272
43	0x3e0da268	0.13831484
44	0x3e6fdb3a	0.23423472
45	0xbf03daf4	-0.5150597
46	0xbe54605a	-0.2073988
47	0x3da3fec9	0.08007581
48	0x3daa6175	0.0831937
49	0x3eee4e81	0.4654427
50	0x3e7c90bc	0.24664587
51	0x3dc093c9	0.09403188
52	0x3f2d4832	0.67688286
53	0xbdcfaa5a	-0.10139914
54	0xbed5c28d	-0.41749993
55	0xbefa870e	-0.48931164
56	0x3dd882c6	0.10571818
57	0xbe6204f7	-0.22072206
58	0xbe9b497a	-0.30329496
59	0xbec40a82	-0.38289267
60	0xbe06f27b	-0.13178436
61	0x3eb6f4f5	0.35733762
62	0x3f0275c0	0.5096092
63	0xbed960fe	-0.42456812
64	0x3eb889bf	0.36042592
65	0xbed264d0	-0.4109254
66	0x3e0ef73f	0.13961504
67	0xbe226604	-0.15859228
68	0xbe907eb4	-0.28221667
69	0xbec1c11f	-0.37842652
70	0xbe31a1ab	-0.17346828
71	0xbeb91119	-0.36145857
72	0xbd83fb2d	-0.06444392
73	0x3de5d2a5	0.11221818
74	0xbdb5f5c3	-0.08884766
75	0xbe98327b	-0.29726014
76	0xbe94bd46	-0.29050654
77	0x3e344298	0.17603528
78	0xbdc7e4c0	-0.097604275
79	0x3ccbde83	0.024886375
80	0x3e999aff	0.30001065
81	0x3e2ba3e6	0.16761741
82	0xbeb776bf	-0.35832784
83	0x3e0aeb06	0.13566217
84	0xbd987492	-0.07444109
85	0xbebb25e6	-0.36552352
86	0xbd7f82d5	-0.06238063
87	0xbe1a87b9	-0.15090837
88	0x3e2df175	0.1698664
89	0xbd12d0cb	-0.03584365
90	0x3e071e71	0.13195206
91	0x3eeb544e	0.45962757
92	0xbd1e1985	-0.038598556
93	0xbd7bc77a	-0.061469533
94	0xbe049c8d	-0.12950344
95	0xbd920258	-0.07129353
96	0x3e8e6102	0.27808386
97	0x3e9e34c0	0.3089962
98	0xbec3b41e	-0.38223356
99	0x3d029d40	0.031888247
100	0x3e1f7516	0.15572008
101	0x3edc76ff	0.43059537
102	0xbdfbbd2e	-0.122919425
103	0xbe3bb9f7	-0.18332659
104	0x3da969c7	0.082721286
105	0x3ee3264b	0.44365153
106	0x3e85d9fe	0.26142877
107	0xbd5b4383	-0.05353118
108	0x3e0f2c0d	0.13981648
109	0xbcb39842	-0.021923188
110	0x3e7ef17a	0.24896803
111	0xbc4fa406	-0.012673384
112	0x3e91d48b	0.2848247
113	0xbe02683d	-0.12735076
114	0xbeea4420	-0.457551
115	0x3d93f456	0.07224338
116	0x3ed3379a	0.41253358
117	0xbe95b5e6	-0.2924034
118	0xbde3fab8	-0.11131805
119	0x3e3025f6	0.17201981
120	0x3edf186e	0.43573326
121	0x3e3060f8	0.1722449
122	0x3e562ea7	0.20916234
123	0x3e33de38	0.17565238
124	0x3eb918fe	0.3615188
125	0x3bfda92a	0.007741113
126	0x3e192474	0.14955312
127	0xbe2739a7	-0.16330586
128	0x3eddb9b1	0.43305734
129	0xbd644d8d	-0.05573802
130	0xbea00596	-0.31254262
131	0xbeef25c2	-0.46708494
132	0xbeac5df4	-0.3366543
133	0xbe203c34	-0.15647966
134	0x3ef12c83	0.47104272
135	0xbea6d74a	-0.32586128
136	0x3e2d665a	0.16933575
137	0x3ec496dd	0.3839635
138	0xbea5d1d5	-0.32386652
139	0x3d4245d6	0.047429882
140	0xbcfb1d56	-0.030653637
141	0x3e8fac79	0.28061274
142	0x3f151719	0.5823837
143	0x3ded3c15	0.11583725
144	0xbe80d3f0	-0.25161695
145	0xbedb92bf	-0.42885396
146	0xbd693f30	-0.056945026
147	0x3e6fd1dd	0.234199
148	0xbeac49da	-0.33650094
149	0x3d7b43e4	0.061344042
150	0x3cce249e	0.025163945
151	0x3ec2b900	0.3803177
152	0xbd8ae476	-0.06781857
153	0xbd061359	-0.032733295
154	0xbe251c6d	-0.16124125
155	0x3f20671f	0.6265735
156	0xbf314d23	-0.69258326
157	0x3dea5fc1	0.11444045
158	0xbe5fd1da	-0.21857396
159	0xbe475e98	-0.19469678
160	0x3eabf5c9	0.33585957
161	0xbcca91f1	-0.024727793
162	0x3f2139a8	0.629786
163	0x3e33ac4c	0.17546195
164	0x3e5ab0a9	0.21356453
165	0x3e942072	0.28931004
166	0xbe80d1d0	-0.25160074
167	0x3c3db640	0.011579096
168	0x3e9f3628	0.31096005
169	0x3ec392ac	0.3819784
170	0xbe826b4d	-0.2547249
171	0xbe43b724	-0.19112831
172	0x3b1fcbfc	0.0024383059
173	0x3e1dca7b	0.15409271
174	0xbcd201b1	-0.025635572
175	0xbecbb0de	-0.39783376
176	0xbc710d9c	-0.014712717
177	0x3efa8224	0.48927414
178	0xbf30f0e5	-0.69117576
179	0x3ea88526	0.32914084
180	0x3b7ff0ed	0.0039053515
181	0x3dbd2e5d	0.09237359
182	0x3de82b77	0.11336415
183	0xbd981adc	-0.07426998
184	0x3eeeff3a	0.46679097
185	0x3c9d85c5	0.019228825
186	0x3d6ade1d	0.05734073
187	0xbe3ce268	-0.18445742
188	0x3dafc2cb	0.08582076
189	0xbf8b4b16	-1.088229
190	0xbcc9ef6e	-0.024650302
191	0x3c48f488	0.012265332
192	0x3ee7913d	0.45227996
193	0xbe853347	-0.26015684
194	0xbebc2e67	-0.36754152
195	0xbf447c88	-0.7675252
196	0x3de5b42d	0.112160064
197	0xbdd0bfdc	-0.10192844
198	0xbeaaabd0	-0.33334208
199	0xbe80678f	-0.2507901
200	0xbe30511c	-0.17218441
201	0x3ea91fc4	0.33032048
202	0x3d1b3fc1	0.037902597
203	0xbcc8f30c	-0.024529956
204	0xbf4412e1	-0.76591307
205	0x3e4b08ff	0.1982765
206	0x3ef9555e	0.48697942
207	0x3db572d2	0.08859791
208	0xbe8fa13f	-0.28052709
209	0xbf13254d	-0.5747879
210	0xbf0c7c41	-0.54877096
211	0x3e4b5c17	0.19859348
212	0x3f04532d	0.51689416
213	0x3dc381c1	0.09546233
214	0xbe0ed7ae	-0.13949463
215	0xbdf1990b	-0.11796769
216	0xbd502d65	-0.05082454
217	0xbe23b662	-0.15987542
218	0xbd7a4052	-0.061096497
219	0x3f0e2566	0.55525815
220	0xbeaac6bb	-0.33354744
221	0xbf150918	-0.58217
222	0xbbd2a302	-0.0064281235
223	0xbd5af4f6	-0.05345627
224	0x3e16f04c	0.14740103
225	0xbd09de6e	-0.03365939
226	0x3edc3531	0.43009332
227	0xbd8ba5f0	-0.068187594
228	0xbf12dba1	-0.5736638
229	0xbc799796	-0.015233895
230	0xbe89ca2e	-0.26912063
231	0xbe3ed82f	-0.18637155
232	0x3e308ddb	0.17241614
233	0x3d232f39	0.039839957
234	0xbea6af03	-0.32555398
235	0x3ec224c0	0.37918663
236	0xbefa0cc3	-0.4883786
237	0x3d73f5c7	0.059560563
238	0xbeaee7eb	-0.34161314
239	0xbe882702	-0.2659226
240	0xbe6193d6	-0.22029051
241	0x3e913fcd	0.2836899
242	0x3e54c475	0.20778067
243	0x3da3acb9	0.079919286
244	0xbf4b330e	-0.7937478
245	0xbde16051	-0.11004699
246	0xbe7a09ff	-0.24417876
247	0xbefa6ba5	-0.4891025
248	0x3e4c9739	0.19979562
249	0xbe065575	-0.13118537
250	0x3f19e401	0.6011353
251	0x3f854f33	1.0414795
252	0xbe5dc750	-0.21658063
253	0x3e488147	0.19580565
254	0x3f770624	0.96493745
255	0x3d8985e9	0.067149945

model.encoder.in_layer.convs.1.lin_r.bias f4 [64]
0	0x3ec8df42	0.39232832
1	0xbcc10e06	-0.023566257
2	0x3bc04f33	0.0058688163
3	0xbe626b61	-0.22111274
4	0x3e9a726e	0.30165428
5	0x3c3faf63	0.01169953
6	0x3e089a92	0.13340214
7	0x3c9ac587	0.018893017
8	0xba5aa84b	-0.00083411176
9	0x3d97e2b9	0.07416291
10	0x3ef02efc	0.46910846
11	0x3eae9aa0	0.34102345
12	0xbe6e7979	-0.23288526
13	0x3e30d1c9	0.17267527
14	0xbe6f967a	-0.23397246
15	0xbe84a304	-0.2590562
16	0x3eaf8cd0	0.3428712
17	0x3b9c5c94	0.0047717784
18	0x3d1d34c7	0.03838041
19	0xbd4475c4	-0.047963873
20	0x3c50d993	0.012747186
21	0xbe2bc29b	-0.16773455
22	0xbe457740	-0.19283772
23	0x3d5a0f61	0.053237323
24	0x3e8ad15c	0.27112854
25	0x3e06a2bd	0.13148017
26	0x3e9595bc	0.292158
27	0x3dc5aeef	0.096525066
28	0x3e248ebf	0.16070078
29	0xbe41fd6f	-0.18944333
30	0xbe07fff7	-0.13281237
31	0x3edda702	0.4329148
32	0x3dcd6dce	0.10030709
33	0xbda42384	-0.080145866
34	0x3e2a2afe	0.16617963
35	0x3d99da99	0.07512397
36	0x3d4ef718	0.050528616
37	0x3ec1b7ee	0.3783564
38	0x3e2f98a8	0.17148077
39	0x3e964b76	0.29354447
40	0x3d1a8d73	0.037732553
41	0xbd34eeff	-0.044173237
42	0x3e0cfd7e	0.13768575
43	0xbcc75fbd	-0.024337644
44	0x3cc84f77	0.024451954
45	0xbe2a7ff8	-0.16650379
46	0x3e33d165	0.17560346
47	0x3e3a8c30	0.1821754
48	0x3d90e20f	0.07074367
49	0xbe2a4fc2	-0.16631988
50	0x3d49c9a8	0.04926458
51	0x3e40ed66	0.1884056
52	0xbdb34f09	-0.08755309
53	0xbcb881e8	-0.022522882
54	0x3d70f87b	0.05883072
55	0x3ea64cdf	0.32480523
56	0xbe133887	-0.14377032
57	0x3e34e9ce	0.17667314
58	0x3cf24066	0.029571723
59	0x3e500c48	0.20317185
60	0xbd4f34fb	-0.050587635
61	0xbe24bfc3	-0.16088776
62	0x3e671939	0.22568215
63	0x3d3740ed	0.044739652

model.encoder.in_layer.convs.2.att f4 [1, 1, 64]
0	0xbdbc438b	-0.0919257
1	0x3ebc0043	0.3671895
2	0x3eb59aaa	0.35469562
3	0x3f17127d	0.59012586
4	0xbf6f9c63	-0.93598
5	0x3f33c3f6	0.7022089
6	0xbf08011f	-0.5312671
7	0xbf312494	-0.6919644
8	0xbf149da1	-0.5805302
9	0x3f408c42	0.75214016
10	0x3ee21496	0.4415633
11	0x3ef86576	0.4851491
12	0xbea022b3	-0.31276473
13	0x3fa3ec31	1.2806455
14	0xbf0196fa	-0.50620997
15	0xbf6f3756	-0.9344381
16	0x3f32eaab	0.69889325
17	0xbf978f8f	-1.1840686
18	0x3f0bdc39	0.5463291
19	0x3ed2e29d	0.41188517
20	0x3ee8729a	0.45399934
21	0x3f3440b0	0.70411205
22	0xbf767738	-0.96275663
23	0xbe88a3c6	-0.2668745
24	0xbf670863	-0.9024717
25	0xbf97b43c	-1.1851878
26	0x3ec91518	0.39273906
27	0xbf8aee4d	-1.0853974
28	0xbfc221a4	-1.5166516
29	0x3f8013ce	1.0006044
30	0xbfcc7c41	-1.5975419
31	0x3eb3c53c	0.35111415
32	0x3f2bfbcd	0.6718109
33	0x3f239fae	0.63915527
34	0xbf2a9c95	-0.66645175
35	0x3fa47a1a	1.2849762
36	0xbf062597	-0.5240111
37	0xbf8098a2	-1.004658
38	0xbf8f68bd	-1.1203839
39	0xbdc99a15	-0.09843842
40	0x3f35b972	0.7098609
41	0x3f61b1a8	0.88161707
42	0x3e8aa7c0	0.27081108
43	0xbebbc6a1	-0.3667498
44	0x3e9e7f9f	0.30956742
45	0xbfa0c74e	-1.2560823
46	0x3f41115a	0.754171
47	0xbf369bd9	-0.71331555
48	0xbe65f20a	-0.22455612
49	0xbea5a1d1	-0.3235002
50	0x3f368377	0.7129435
51	0x3fce4ffb	1.6118158
52	0x3f03e98b	0.51528233
53	0xbf7d53e5	-0.9895614
54	0x3f996786	1.1984718
55	0xbf7ef382	-0.99590313
56	0xbf80e541	-1.0069963
57	0xbfb64376	-1.4239337
58	0xbf249fbd	-0.6430624
59	0x3f82d073	1.0219864
60	0x3f04a034	0.5180695
61	0x3f04a105	0.51808196
62	0x3f8b7960	1.0896416
63	0x3ef9320e	0.48671

model.encoder.in_layer.convs.2.bias f4 [64]
0	0x3d3ff5ca	0.046865262
1	0xbdece151	-0.11566413
2	0x3e31dc1a	0.17369118
3	0x3e29e1a6	0.16589984
4	0x3cb5a90b	0.022175333
5	0x3d4e67d5	0.05039199
6	0xbe4192c7	-0.18903647
7	0xbd184e40	-0.037184
8	0x3e1604e7	0.14650308
9	0xbd6149fe	-0.055002205
10	0xbcde9ce5	-0.027174423
11	0x3e4f0e79	0.20220365
12	0x3d3a8092	0.04553277
13	0x3db7ce53	0.089749
14	0xbe53c6aa	-0.20681253
15	0x3d317ec6	0.04333379
16	0x3ddd6efa	0.10812183
17	0xbdd22234	-0.1026043
18	0xbd353c99	-0.044247244
19	0xbe0a4135	-0.13501437
20	0x3c8c6255	0.017136732
21	0xbcd02cd2	-0.025411997
22	0xbd8317ea	-0.064010456
23	0x3b20673c	0.0024475595
24	0xbe96f3df	-0.29482934
25	0x3d0dcde5	0.034620184
26	0xbe25a5c5	-0.16176517
27	0x3cc261f2	0.023728345
28	0x3e8fd5d5	0.28092828
29	0x3e01c02e	0.12670967
30	0xbce13aa7	-0.027493788
31	0x3e675bf0	0.22593665
32	0x3d792cd1	0.060833756
33	0x3d72cab4	0.059275344
34	0x3c14b8bf	0.00907725
35	0x3e4cb90f	0.19992469
36	0x3e5abb92	0.21360615
37	0xbd31a372	-0.043368764
38	0xbe0af98d	-0.13571759
39	0xbe9ca6d8	-0.30596042
40	0xbd926e29	-0.07149918
41	0x3d469067	0.048477557
42	0xbe42eae4	-0.19034916
43	0xbe844399	-0.25832823
44	0xbe81a9f3	-0.25324973
45	0xbe7253af	-0.23664735
46	0xbd6573a8	-0.0560185
47	0xbb9701c6	-0.0046083657
48	0x3dd448d3	0.103654526
49	0xbda5beb5	-0.08093015
50	0xbdde8377	-0.10864919
51	0x3d7b6e44	0.061384454
52	0x3dcb4416	0.09925096
53	0xbe1bd3d7	-0.15217529
54	0xbde05568	-0.1095379
55	0x3e44065d	0.19143052
56	0xbd810805	-0.06300358
57	0xbe831a31	-0.2560592
58	0xbd990fdc	-0.07473728
59	0x3e1a8977	0.15091501
60	0xbc7f2fae	-0.015575333
61	0xbe049d4e	-0.12950632
62	0xbeb07319	-0.34462813
63	0xbe1df85b	-0.15426771

model.encoder.in_layer.convs.2.lin_l.weight f4 [64, 64]
0	0xbe0c2537	-0.13686071
1	0xbe7727b0	-0.24136233
2	0xbd9f6658	-0.077831924
3	0x3ea5773c	0.3231753
4	0x3d46e8e8	0.04856196
5	0x3a8f4c8b	0.0010932846
6	0xbc8b705f	-0.017021356
7	0x3d4ffb15	0.05077656
8	0xbe9c01e4	-0.30470192
9	0x3e37f29c	0.17963642
10	0xbf0bc879	-0.5460277
11	0xbde51dd9	-0.111873336
12	0x3cb8f582	0.022578005
13	0xbdc3cbaf	-0.09560334
14	0xbe45ed4f	-0.19328807
15	0xbeec5fc6	-0.4616682
16	0xbd881e18	-0.06646365
17	0xbe31e026	-0.17370662
18	0xbeebaa18	-0.4602821
19	0x3e06625f	0.13123463
20	0xbd6ab354	-0.057299927
21	0x3e63a5f6	0.22231278
22	0xbb11e47b	-0.002226143
23	0xbe88a433	-0.26687774
24	0xbe96e34e	-0.29470295
25	0xbe14ec00	-0.14543152
26	0xbda6dfaf	-0.08148133
27	0x3ee22864	0.4417144
28	0xbcb017f9	-0.021495806
29	0xbf0561a9	-0.5210214
30	0xbec2b155	-0.3802592
31	0x3f364af2	0.7120811
32	0xbf14cb34	-0.58122563
33	0xbee56e22	-0.44810587
34	0x3e2c3322	0.1681638
35	0xbec316dd	-0.3810338
36	0x3e8be4a0	0.27322865
37	0xbf91e284	-1.1397252
38	0x3e1710c5	0.14752491
39	0x3e5d5c7d	0.21617313
40	0x3e51567e	0.2044315
41	0x3d6d7ad7	0.057978477
42	0x3ef051de	0.4693746
43	0x3e9e0b1b	0.30867848
44	0xbe1e2cb1	-0.15446736
45	0xbe0e2ee5	-0.13885076
46	0x3bc1fc09	0.0059199375
47	0x3d9a9717	0.07548349
48	0x3dbbc609	0.091686316
49	0xbdecb91f	-0.115587465
50	0x3ec18642	0.37797743
51	0x3cc41bd7	0.023939056
52	0xbe09c25c	-0.13453048
53	0x3dd0fc0e	0.102043256
54	0x3dd4e08a	0.1039439
55	0x3d717659	0.058950756
56	0x3d8737b3	0.06602421
57	0x3e6d001b	0.23144571
58	0xbe88e76f	-0.2673907
59	0x3ea7a2f3	0.32741508
60	0x3e8cc557	0.27494308
61	0xbea4ce40	-0.32188606
62	0x3d1f92ca	0.03895835
63	0xbed7abde	-0.42123312
64	0x3e012395	0.1261123
65	0xbdaa15b8	-0.08304924
66	0xbe096b13	-0.13419752
67	0xbe9ab83b	-0.30218682
68	0xbd4b9f71	-0.049712602
69	0x3e79f473	0.24409656
70	0x3ea4c6e7	0.32183
71	0x3e5b1ff1	0.21398903
72	0xbe83a399	-0.25710753
73	0x3d45bbfd	0.048274983
74	0xbf75a52d	-0.95955163
75	0x3d35b217	0.044359293
76	0xbe4d0bd4	-0.20024043
77	0xbdc1903d	-0.094513394
78	0xbf1555a2	-0.5833379
79	0xbdbaea3a	-0.091267064
80	0x3e421737	0.18954168
81	0xbc204585	-0.0097822
82	0x3e28b9dc	0.1647715
83	0x3ec4a269	0.3840516
84	0xbefa0bb9	-0.4883707
85	0x3e3e62bc	0.18592352
86	0x3e9a5b4c	0.3014778
87	0x3edfd358	0.4371593
88	0xbec27aa5	-0.37984195
89	0xbee24e98	-0.44200587
90	0x3ddc7fc8	0.1076656
91	0xbeb1a817	-0.34698555
92	0x3e2f41a3	0.17114882
93	0xbeb0bdd5	-0.3451983
94	0x3d4072b2	0.046984382
95	0x3eed3b08	0.463341
96	0x3edcfcd6	0.4316165
97	0x3dede00b	0.116149984
98	0xbf148bcb	-0.5802581
99	0x3e87d774	0.26531565
100	0xbca51837	-0.020153148
101	0x3c238f0a	0.009982834
102	0xbf34119c	-0.7033937
103	0xbf16e4bb	-0.58942765
104	0xbe3d8e97	-0.18511425
105	0xbb88ffdb	-0.004180891
106	0x3e365aa3	0.17808013
107	0xbe99f957	-0.30073044
108	0x3dab06e9	0.083509274
109	0x3eb2feb3	0.34959945
110	0xbe8a1512	-0.269692
111	0xbe64cacd	-0.22342987
112	0xbed0d342	-0.40786177
113	0xbc8bf96e	-0.01708671
114	0xbf15e080	-0.58545685
115	0x3e8dbc5d	0.27682772
116	0xbe2efd3e	-0.17088792
117	0x3de5ef70	0.1122731
118	0xbe221061	-0.1582656
119	0xbe693bca	-0.22776714
120	0x3e4aecdc	0.19816917
121	0xbb18099c	-0.0023199087
122	0x3edcc942	0.43122298
123	0x3dcb5d08	0.09929854
124	0xbedec799	-0.43511656
125	0x3e0a04b5	0.13478358
126	0x3e8b48a1	0.2720385
127	0xbec4681b	-0.38360676
128	0x3ebd2802	0.36944586
129	0x3ea47c37	0.32126018
130	0xbe52c38c	-0.20582408
131	0xbd802eed	-0.062589504
132	0xbe46167e	-0.19344518
133	0xbe42bf24	-0.19018227
134	0xbe9f1042	-0.3106709
135	0x3d32d7fa	0.043663003
136	0xbe5915c0	-0.21199703
137	0x3dbb80e8	0.09155446
138	0xbc2a1b7f	-0.010382532
139	0xbe31214a	-0.17297855
140	0x3d42eaf8	0.047587365
141	0x3c9c2ac3	0.01906336
142	0xbb2a5586	-0.0025990917
143	0x3dd6c07a	0.10485931
144	0xbd286cc6	-0.04111936
145	0xbd78fd4a	-0.06078843
146	0xbde4747d	-0.11155031
147	0x3d9a760d	0.07542048
148	0x3e074e54	0.13213474
149	0x3da7defc	0.08196828
150	0xbe162c80	-0.14665413
151	0x3f1d05fd	0.6133726
152	0xbcee949c	-0.029123597
153	0x3d637162	0.055528052
154	0x3d58c8c7	0.05292585
155	0x3e227b52	0.15867355
156	0xbc4e3526	-0.012585914
157	0xbd858ecf	-0.06521379
158	0x3c5985b6	0.013276508
159	0x3f00e916	0.5035566
160	0xbd42e172	-0.047578283
161	0x3e5e596e	0.21713802
162	0xbe61ffee	-0.22070286
163	0xbf022b45	-0.50847274
164	0xbc0b1a3f	-0.008490144
165	0xbf7ccafa	-0.9874722
166	0x3ea847d7	0.3286731
167	0x3ded7dd6	0.11596267
168	0xbca8d69f	-0.020610152
169	0xbe26d836	-0.16293415
170	0x3e2510ca	0.16119686
171	0x3d46f8f0	0.04857725
172	0xbdbf3f00	-0.09338188
173	0x3db11a22	0.086475626
174	0xbe86c336	-0.2632081
175	0x3e9ae0b0	0.30249548
176	0xbe758ac0	-0.2397871
177	0x3e616dd0	0.22014546
178	0xbd394f1f	-0.04524147
179	0xbca7c58d	-0.020479942
180	0x3eec9666	0.46208495
181	0x3d61b47f	0.055103775
182	0xbf06c708	-0.5264745
183	0xbdb65955	-0.089037575
184	0xbed04bc9	-0.4068282
185	0xbd5dc055	-0.0541385
186	0x3bc7b923	0.006095068
187	0x3eaa6e10	0.33287096
188	0x3e19365b	0.14962141
189	0xbed25f3d	-0.41088286
190	0xbe82baba	-0.25533086
191	0xbdcb26bd	-0.09919498
192	0xbef50f58	-0.4786327
193	0xbe90a2bd	-0.2824916
194	0x3e8a28d5	0.26984277
195	0xbe80acff	-0.25131986
196	0xbec276d4	-0.37981284
197	0xbf02e817	-0.5113539
198	0xbeaa247c	-0.3323096
199	0xbe445964	-0.19174725
200	0x3e1014e1	0.14070465
201	0x3db20566	0.08692436
202	0xbecd989f	-0.40155503
203	0x3e8a1a9a	0.2697342
204	0xbec577db	-0.38568005
205	0xbf101bd4	-0.5629246
206	0xbe3399e4	-0.17539173
207	0xb8aecadf	-8.334754e-05
208	0x3eba2554	0.36356604
209	0x3ebed652	0.37272888
210	0xbeabd222	-0.33558756
211	0xbeec415f	-0.46143624
212	0x3d7bbd6b	0.06145994
213	0xbe70f1eb	-0.23529784
214	0x3d22fd0e	0.039792113
215	0x3cafb6f3	0.021449542
216	0xbd6d5fbb	-0.057952624
217	0x3d6cb3a5	0.05778851
218	0xbe31e122	-0.17371038
219	0x3eb28bf9	0.34872416
220	0xbef9328d	-0.4867138
221	0x3e06bd8d	0.13158245
222	0xbd6d1c62	-0.057888396
223	0x3ed0a978	0.40754294
224	0xbd1fbfd9	-0.03900132
225	0xbd3e52e2	-0.046465762
226	0x3bce4c0e	0.0062956875
227	0x3d2a9c8a	0.041653194
228	0xbeeb21f3	-0.4592434
229	0x3ea4264b	0.32060465
230	0x3c43e096	0.011955401
231	0xbec57b84	-0.38570797
232	0xbe6a7a45	-0.22898205
233	0x3eefa02d	0.46801892
234	0xbedcb633	-0.43107757
235	0x3df9ac17	0.12191027
236	0x3ccece16	0.025244754
237	0xbc58acef	-0.013224824
238	0x3eb3f18e	0.3514523
239	0xbf595f14	-0.849107
240	0x3e963a75	0.29341474
241	0xbe31a317	-0.1734737
242	0xbef7a424	-0.48367417
243	0xbe35dee0	-0.17760801
244	0x3eb2eb8e	0.3494534
245	0xbedbe5c0	-0.42948723
246	0xbde5ea6b	-0.11226352
247	0x3d9c7403	0.07639315
248	0x3e4119f2	0.18857554
249	0x3e04dec0	0.12975597
250	0xbe0d3534	-0.13789827
251	0x3d3e8bb1	0.04651994
252	0xbde4d37e	-0.111731514
253	0xbdd127b6	-0.102126524
254	0x3d410810	0.04712683
255	0xbbdffd56	-0.00683562
