trained_models/S_S_e=175.ckpt (torch, 729277 bytes, 49 tensors)

model.encoder.in_layer.convs.0.att f4 [1, 1, 64]
000000 23 36 97 be 13 b5 d6 bd b3 79 99 3e 83 86 38 bd
       -0.2953349 -0.10483756 0.29975662 -0.045050155
000010 30 19 9d 3e 63 a4 01 3f 94 a0 b7 3d 68 d6 96 be
       0.3068328 0.5064146 0.08966175 -0.29460454
000020 b5 79 ac 3e f4 0c b3 be c4 1b d1 be 52 5f 85 3e
       0.33686605 -0.3497082 -0.40841496 0.26049286
000030 3c 20 a5 3e 4d 6c 40 bf 61 90 dc be 78 d9 02 be
       0.32251155 -0.75165254 -0.43078902 -0.1277827
000040 1b 79 58 bf c2 4c ad be 78 8b 22 3f ab 70 aa 3e
       -0.8455979 -0.33847624 0.6349406 0.33289084
000050 b1 6e b8 be e9 61 a5 be c1 44 0a 3f 1b dd 5d 3e
       -0.3602195 -0.32301262 0.5401116 0.21666376
000060 8f cb 6a 3d d0 fb ca 3e c7 e1 c1 be 78 21 06 3e
       0.057323035 0.39645243 -0.37867567 0.13098705
000070 4a 2b 35 3f df 05 d1 3e d1 50 a8 3e 69 cd 07 bf
       0.7076918 0.40824792 0.32874158 -0.53047806
000080 c2 1c 88 be d4 99 13 3d 5f 05 30 3f 00 d5 d2 3e
       -0.2658444 0.036035374 0.68758196 0.4117813
000090 1e b7 bc 3d be aa 26 bf 25 c5 f4 be 3f cf 65 3d
       0.09214614 -0.6510428 -0.4780666 0.05610585
0000a0 41 16 97 3e 96 f2 b0 3e 4c 6a 17 3f 01 98 e2 be
       0.29509166 0.34560078 0.5914657 -0.44256595
0000b0 ee 11 2f bf e2 2d 02 bf f3 8b 9b be ea 27 16 3e
       -0.68386734 -0.5085126 -0.3038021 0.14663664
0000c0 53 7a 0a 3f ba bf 06 bf a2 58 06 3f 0e 1e ce 3e
       0.540929 -0.526363 0.5247899 0.40257305
0000d0 8f 80 0a bf a5 cb 33 bf 3d fe b0 be 36 81 46 3e
       -0.54102415 -0.7023261 -0.34568968 0.19385228
0000e0 f6 9e cc 3e c9 fa ef be 8d 4e 10 3e 5e 7d 84 3d
       0.39965028 -0.4687102 0.14092465 0.064692244
0000f0 41 e4 14 3f 04 67 4c 3f c4 30 6a 3f 85 28 18 be
       0.5816079 0.7984469 0.9148066 -0.14859207

model.encoder.in_layer.convs.0.bias f4 [64]
000000 32 da 6f 3d 8b 87 06 bd c5 12 a8 3d 30 27 7a bd
       0.058557697 -0.032844108 0.08206705 -0.06107253
000010 51 fa c8 3d 71 c3 74 be cb 00 c3 bd 36 b6 ad bd
       0.09813369 -0.2390268 -0.095216356 -0.084820196
000020 60 3b 0b bd 15 2c 22 3d 0a 23 7c be a9 4b 8f bd
       -0.03399217 0.03959282 -0.24622741 -0.06996853
000030 f5 2d 17 3e 53 d8 c0 be ff 05 a8 3d 3b a2 2b be
       0.14763625 -0.37665042 0.08204269 -0.16761105
000040 8c b5 61 be 38 37 63 3d c4 b2 41 be 39 fa ae 3d
       -0.22041911 0.055472583 -0.1891585 0.0854382
000050 f8 e0 f6 bd 19 41 1b bc 40 17 32 3e a6 98 f1 bd
       -0.12054628 -0.00947597 0.17391682 -0.117966935
000060 01 d1 9c bb 3d e9 29 3d be 12 7b be 38 c2 7a be
       -0.0047856574 0.0414822 -0.24518868 -0.24488151
000070 f5 4d 9e 3d 5e 39 ad 3d 85 91 b9 bd e0 74 a7 be
       0.07729713 0.084582075 -0.09060959 -0.32706356
000080 99 fc c2 be be f8 7d 3d cf 0e 14 3d c7 9a 75 bd
       -0.38083342 0.062004797 0.036146935 -0.05996206
000090 f5 c2 46 bb 6c ef 57 3d e6 d4 43 be 16 be f6 3c
       -0.0030328606 0.052718565 -0.19124183 0.030119937
0000a0 9a 1b 41 3b 04 f4 15 3c d5 51 c3 bd 85 18 3b 3e
       0.0029465915 0.009152416 -0.095370926 0.18271072
0000b0 52 a4 73 be 44 5d 22 be a0 57 eb 3d e2 81 e2 3d
       -0.23793152 -0.1585589 0.114913225 0.110599294
0000c0 f0 18 e8 bd 87 14 bb 3d b9 2e 2d be ae 7f 1a 3d
       -0.113328815 0.09134775 -0.16912355 0.03771942
0000d0 7d 73 3c 3e bf 2a ff bd e9 61 87 bd ad a9 98 bd
       0.1840343 -0.12459325 -0.06610472 -0.07454238
0000e0 11 0f 48 3d c4 be 51 be ce 48 2d be b4 b6 fd 3d
       0.048842493 -0.20482928 -0.16922304 0.123883635
0000f0 1d e5 b4 3c 62 71 6d be 91 3b 91 3e e5 97 5d 3e
       0.022081906 -0.23187783 0.28365758 0.21639974

model.encoder.in_layer.convs.0.lin_l.weight f4 [64, 6]
000000 f0 62 1f 3e 60 cb ee be 8e 5e aa be 9c 58 b8 be
       0.15565085 -0.46639538 -0.33275265 -0.36005104
000010 48 63 f7 be 0d 0b 34 be aa 87 49 3e c1 93 c2 be
       -0.48317933 -0.1758234 0.19680658 -0.38003352
000020 ed be a3 3d 9e dc d4 3e 8e 5a a3 3e 2a 99 4b 3f
       0.079954006 0.41574568 0.31905025 0.79530585
000030 c5 2f ee be 76 93 5a 3e c1 19 37 be 48 ee f2 3e
       -0.4652082 0.21345314 -0.17880918 0.4744742
000040 0f d2 5e 3f 9d b6 83 be 18 5d 39 3e 34 c1 9e 3e
       0.87039274 -0.2572526 0.18101919 0.31006777
000050 03 4d 8c be 87 61 d5 bd 26 3e d1 bd 58 5e b7 3e
       -0.27402505 -0.104189925 -0.10216932 0.35814166
000060 c0 c0 cb 3e 68 b1 cf bd 68 87 b8 3c 40 2c 28 3f
       0.39795494 -0.101412594 0.022525504 0.6569252
000070 e1 a9 db 3e 72 b3 bd 3e de fa 18 3c 14 5e 9d 3e
       0.42903045 0.37050968 0.009337155 0.30735838
000080 ac 41 bb 3d 86 82 24 3e b4 32 0f 3f 35 30 85 3e
       0.09143385 0.16065416 0.5593674 0.26013342
000090 4a 2c 12 3d 27 19 ae be 60 63 84 bc 3f 2e f8 be
       0.03568677 -0.34003565 -0.016160667 -0.48472783
0000a0 66 2c 88 3e 8c e4 78 bf 73 7e 35 be df 47 dd 3d
       0.26596373 -0.97223735 -0.17724018 0.10804724
0000b0 9f 67 69 be ce ca cb bc a1 ca 85 be 98 1d 42 bf
       -0.22793435 -0.024876978 -0.26131156 -0.75826406
0000c0 5f 03 c5 3d 3a 38 83 3e f4 a7 20 3e 3d d3 41 3f
       0.096197836 0.25628835 0.15689069 0.7571295
0000d0 c0 c5 8d be b5 d2 81 bd 10 ba 2d be ad 80 08 be
       -0.27689934 -0.06339017 -0.16965508 -0.13330336
0000e0 09 cb 32 bd 28 c6 02 be 94 ec e2 3e 61 19 00 3f
       -0.04365066 -0.12770903 0.4432112 0.50038725
0000f0 c8 af 8a be d1 13 14 3e 3e d1 eb 3e af bf 99 3d
       -0.27087235 0.14460684 0.46058077 0.07507264
000100 40 d5 42 3c c6 53 c2 3e aa 99 b0 3e 90 8d 8e 3d
       0.011891663 0.3795454 0.34492236 0.06960595
000110 d4 f6 aa bc 38 7e 43 bf b1 13 cd be 9a 01 8a be
       -0.02086965 -0.7636447 -0.40054086 -0.26954347
000120 be 9b af 3d 6a 18 3f be df e9 4d bd b5 70 db 3d
       0.08574627 -0.18661657 -0.050271865 0.107148565
000130 1b 56 7e 3f c7 e1 84 3e dd 9f c3 be 05 e9 c5 bd
       0.99350137 0.25953504 -0.38207904 -0.096635856
000140 4c a6 71 3e c7 3c 5e be 5a 65 1e bf 36 b6 ab 3e
       0.23598593 -0.21702872 -0.618734 0.33537453
000150 47 dd f0 3e f5 e8 09 3e 8a 2d d1 bd dc 2b 93 bc
       0.4704382 0.13467772 -0.10213764 -0.01796525
000160 a9 c6 4a 3f 7a 0b b7 be b3 b9 66 be 56 8a 55 3e
       0.7920938 -0.35750943 -0.22531776 0.20853552
000170 47 29 87 3e 10 7a 0b bf 7c 2e d0 be f4 20 03 bf
       0.2639868 -0.5448313 -0.40660465 -0.5122216
000180 f0 fe da bd 77 a4 1a be 02 2a 9d be fb 53 4d be
       -0.10693157 -0.15101801 -0.30696112 -0.20051567
000190 20 a8 f6 3e 7a e2 84 be 4f 89 eb bd e0 28 f2 3e
       0.48175144 -0.25954038 -0.11500799 0.4729681
0001a0 ee 6d 93 3e e8 59 ae be c3 36 c0 3e cc 79 91 be
       0.28794807 -0.34052968 0.3754178 -0.28413236
0001b0 cf f4 b4 be 2f a7 c5 bd a2 f2 1d be 73 40 9f bd
       -0.35343024 -0.09651028 -0.15424588 -0.077759646
0001c0 20 33 36 3f ce 7c 94 3f 8e 85 98 3e 81 d6 f0 3d
       0.7117176 1.1600587 0.29789394 0.117596634
0001d0 4b 7b 20 3e 95 d1 56 3f 78 f3 85 3e 8d fe 83 3f
       0.15672033 0.83913547 0.26162314 1.0312058
0001e0 eb 0e c0 be 25 ee b2 bd 7a 1b 73 3e fa 67 2f bd
       -0.37511382 -0.08736829 0.2374095 -0.04282377
0001f0 d7 7c 99 3e 42 51 75 be 7f 21 10 be 81 95 91 3c
       0.29978058 -0.23956779 -0.14075278 0.017771484
000200 dd ee 08 3d 30 05 4c bf ab 4b e8 3e 41 c1 22 3f
       0.033430923 -0.79695415 0.4537023 0.6357613
000210 46 22 67 bd 5c 59 b6 3e 0c ec 91 bd 89 96 c4 be
       -0.05642917 0.3561505 -0.071251005 -0.383961
000220 47 06 82 be 1c 43 56 bf 60 3c ae 3c 16 90 a6 ba
       -0.25395414 -0.8369615 0.021269023 -0.0012707736
000230 1f 71 a3 3c 92 67 c0 be 18 15 4d bf cd ff bb bd
       0.019951401 -0.37579018 -0.8011031 -0.091796495
000240 a5 a7 8f 3e f7 be e1 bd 26 b1 0f 3e 86 ef 5b 3f
       0.2805759 -0.11022752 0.1403242 0.8591236
000250 c0 6f 1f 3f f5 cc 9c be 82 21 96 be 9c de cf bd
       0.6227989 -0.3062512 -0.2932244 -0.10149881
000260 24 07 65 b9 12 2f c4 3e 1c 55 1a bf 66 74 1e 3f
       -0.00021841802 0.38317162 -0.60286117 0.6189636
000270 1a a6 17 bc 83 8d 8c be 46 86 8b 3e 88 7d 04 3e
       -0.00925591 -0.27451715 0.2725088 0.12938511
000280 e4 03 4c bc 7e 11 ef 3d 3b 2e 9e be 26 36 2c bd
       -0.0124520995 0.11673258 -0.30894646 -0.042043827
000290 98 df 20 be c7 5c a8 3e dd f7 5e bf 20 49 e8 be
       -0.15710294 0.32883283 -0.8709696 -0.4536829
0002a0 33 c4 1c 3e bd 56 fe bd 05 9c 87 bd a7 03 a7 3f
       0.15309219 -0.12418888 -0.06621555 1.304799
0002b0 30 2e 51 be 61 a8 0e bf 69 cf b8 3e 6d f0 c0 3e
       -0.20427775 -0.55725676 0.3609574 0.3768343
0002c0 7f 31 b4 bc 96 f9 b6 bb 31 c3 d0 3d eb 05 cd 3d
       -0.021996258 -0.005583952 0.1019348 0.100108944
0002d0 68 92 a4 39 1a 37 a7 3d 5f 34 dc bd b5 27 9e bf
       0.000313896 0.08164807 -0.107521765 -1.2355868
0002e0 d1 1d f4 be e2 74 a8 3e 19 84 30 3d c4 03 67 be
       -0.47678998 0.32901675 0.04309473 -0.2256003
0002f0 e0 9d 32 3d 67 99 d2 bd bc d9 b4 be 69 dd c0 be
       0.043607593 -0.102831654 -0.35322368 -0.37668923
000300 67 27 a8 be 05 0e 02 bf 81 92 01 be f6 04 0f bf
       -0.32842562 -0.5080264 -0.12653543 -0.55866945
000310 4f c3 07 be 90 2f 1e 3e 36 36 65 be a7 d4 90 3d
       -0.13258098 0.15447831 -0.22383961 0.0707181
000320 60 f4 ce bc 91 df 56 bf 6e 57 e5 be 0c be 19 bf
       -0.025263011 -0.83934885 -0.44793266 -0.60055614
000330 f6 e1 a6 3e 0f 5d b8 3e f3 f9 b6 3c ba f2 e6 3e
       0.3259427 0.36008498 0.022335982 0.4510706
000340 b1 95 5e be 4c ee d2 be 24 89 ac 3e 20 9c 80 3e
       -0.2173679 -0.4119743 0.3369838 0.25119114
000350 1a e8 5c 3e 27 4c 3e 3e 5a 3e 09 3e 22 c4 64 3e
       0.21572915 0.18583737 0.13402691 0.22340444
000360 73 46 2a be 68 24 d2 3d dd a9 01 3d 61 79 08 be
       -0.16628437 0.1026085 0.031656135 -0.13327552
000370 8a 80 06 bf 9f 0f 59 bf 4c 1a 85 3e 79 c6 da be
       -0.52539885 -0.8478946 0.25996625 -0.42729548
000380 4c 9b 88 be 1c c6 5e 3f 48 8c 2f 3f 6b a6 b2 be
       -0.26680982 0.8702104 0.6857343 -0.34892592
000390 e3 07 9e bd 7e 60 c8 bd c3 0f ad 3d 1d fb 1e bf
       -0.07716348 -0.097840294 0.08450272 -0.6210192
0003a0 9b 9e 84 3e 50 85 94 be 26 fe bc bd 62 da 28 3e
       0.25902256 -0.2900796 -0.092281625 0.16489556
0003b0 82 aa 04 3e 66 8b 13 3f 15 2a 19 bf ff ab 9a bd
       0.12955669 0.5763458 -0.5982984 -0.07552337
0003c0 db 73 ef 3d 9a 92 7e be 2d 13 c2 3b 04 53 21 be
       0.116920196 -0.24860612 0.005922696 -0.15754324
0003d0 4f c5 82 3f 75 6b 65 bd 12 c8 35 be c2 94 5f 3d
       1.0216464 -0.056010682 -0.17752102 0.054585226
0003e0 a3 23 9f bb 11 21 79 bf 6c 63 df bb e7 4d 09 3f
       -0.004856543 -0.9731608 -0.006817272 0.53634495
0003f0 36 33 62 3e 44 38 be ba 6e bb 96 3e 8d 58 4d 3f
       0.22089848 -0.0014512618 0.29439873 0.8021324

model.encoder.in_layer.convs.0.lin_l.bias f4 [64]
000000 26 f4 6d be ef 79 b0 be 1d 77 2c 3e d2 ef 13 bd
       -0.23237666 -0.34468028 0.16842313 -0.036117382
000010 f5 81 51 3e 37 35 58 bd 8b bb 1f 3d c5 fd c9 3c
       0.20459731 -0.052785125 0.038997214 0.02465714
000020 ce 35 80 3e 27 05 9e 3e cd 5d a4 bd 62 61 29 3e
       0.2504105 0.30863306 -0.080257036 0.16541055
000030 b5 4e d2 3e 0c 08 8d bb dc cc d1 3e 95 74 b1 be
       0.41075674 -0.004303938 0.40976608 -0.34659258
000040 de 6c dc be cd 4f d9 3e ac 36 ea be 96 45 96 be
       -0.4305181 0.42443696 -0.45744836 -0.29349965
000050 19 76 c2 3c cc 2b ab 3e 14 f2 2a 3e 6d 24 c0 be
       0.023737954 0.33431852 0.16693908 -0.3752779
000060 d7 89 ef 3b 8d 26 ce 3e cb e6 ec be bf 4b 9d be
       0.007310133 0.40263787 -0.4626983 -0.30721852
000070 e0 2f f4 3e 23 c9 cb 3e a1 b5 43 be 10 94 81 bd
       0.47692776 0.39801893 -0.19112255 -0.06327069
000080 37 d1 20 bf 9c e6 d2 bc 80 5b 88 3e 00 f9 1c 3d
       -0.62819237 -0.025744729 0.2663231 0.038323402
000090 19 f2 86 be bd 77 0d be 70 44 95 bd fa df b8 3d
       -0.2635658 -0.13815208 -0.07288444 0.09027095
0000a0 2b 22 bf be 56 e4 9c 3e 2d 0b db be 43 92 b2 3d
       -0.37330756 0.30642956 -0.42781964 0.087193035
0000b0 fd 57 dd be 92 83 9d be 78 0e 6c ba 45 0b fa 3e
       -0.43231192 -0.30764443 -0.00090048416 0.48836723
0000c0 0f 49 4f bc d1 c4 4c 3e 7f 74 d1 bd 41 48 8e 3d
       -0.012651696 0.19996955 -0.10227298 0.06947375
0000d0 2f c0 c0 3e c8 1c de be fa 1b 56 3e 65 73 89 3e
       0.37646624 -0.43381333 0.2090911 0.26845852
0000e0 38 cd d2 3d 57 23 ee be 02 3c 11 bf 4f bd f2 3e
       0.102930486 -0.46511337 -0.5673219 0.47410056
0000f0 ee 2a 20 be 5b d3 fb bd f9 e3 62 3e 0f bc 11 3f
       -0.15641376 -0.12296172 0.22157277 0.5692758

model.encoder.in_layer.convs.0.lin_r.weight f4 [64, 6]
000000 a4 4d 9b bd 73 42 4f bf 65 8a 7c 3e 8d b6 10 bf
       -0.07583168 -0.8096077 0.24662168 -0.5652855
000010 eb 03 e3 bc c3 2f 29 be b9 0b cd bd f9 fb 8c bd
       -0.02771183 -0.16522126 -0.100120015 -0.068839975
000020 54 58 9e 3e a5 db 71 be 8f 51 b3 be db 6f c7 be
       0.30926764 -0.23618944 -0.35023162 -0.38952526
000030 d3 97 7e 3e 03 16 b8 3d 6b 55 44 3f 4c ac 10 bd
       0.24862604 0.089885734 0.7669284 -0.035320565
000040 42 b4 49 bf b9 07 25 bd bd c5 ca 3e eb b5 e5 be
       -0.78790677 -0.040290568 0.39603987 -0.44865355
000050 81 85 d6 3e 43 22 62 3f e1 62 01 3c f3 6a 30 3f
       0.4189873 0.8833353 0.00789711 0.6891319
000060 f4 2b a9 bd f3 53 62 3e ad c1 d9 3d dd 6d 2d be
       -0.082603365 0.22102337 0.10632644 -0.16936441
000070 1f 62 5d be 8a 7a 5b 3f 4c 54 ce bc b6 65 2f bf
       -0.21619461 0.85733855 -0.02518668 -0.68514574
000080 2f de ff bd 3d bb 19 3f 9b ee 19 bf 38 ee a7 be
       -0.1249355 0.6005133 -0.6012971 -0.32798934
000090 c6 39 d1 3d cd f3 84 3d 22 80 bc be 19 08 5d 3e
       0.102160975 0.06491814 -0.36816508 0.2158512
0000a0 9c 8e 9f 3e 5a 4d 10 3e 71 95 57 3e d4 c7 b2 be
       0.3116349 0.14092007 0.21053101 -0.34918082
0000b0 4f e6 b6 3b e9 85 9f 3e 6d 64 2c be 34 7d 17 be
       0.005581654 0.31156853 -0.16835184 -0.14793855
0000c0 ed b4 b2 3e c9 1b 03 bf 4c 89 e6 bd 52 e1 b6 3d
       0.3490366 -0.5121427 -0.11256656 0.08929695
0000d0 00 d2 1d bf d0 74 a8 be e2 c5 6f be 1a d5 a3 bd
       -0.6164856 -0.3290162 -0.2341533 -0.0799963
0000e0 5c bb e3 3c 44 5b d7 be 98 34 b1 3e c3 3b 7b be
       0.0277993 -0.42061818 0.34610438 -0.24534516
0000f0 27 1b 77 bd 1e a6 82 3d c5 3e b8 be 91 e5 17 3e
       -0.06032863 0.063793406 -0.3598539 0.14833666
000100 ea 94 e3 3e 49 bd a5 3e 47 36 bc be 69 e6 04 bf
       0.4444955 0.32370976 -0.3676016 -0.5191408
000110 c1 19 24 bd e1 cf b1 be b9 7a 22 3e de 49 a5 be
       -0.040063623 -0.34728912 0.15867127 -0.3228292
000120 cf d2 8a be 97 4f d5 be 6f 69 6f 3e b2 8a 63 3e
       -0.2711396 -0.41662285 0.23380063 0.22220877
000130 7c 7a ad be 0b 50 31 3e 5c dc a1 3e f1 10 07 be
       -0.3388251 0.1731569 0.31613433 -0.13190056
000140 a8 0f 45 3e fb 8b a3 3d ac 94 8d be d4 1e 9e 3d
       0.19244254 0.079856835 -0.2765249 0.07720724
000150 58 fe 06 bf 4b e4 11 3e b3 58 7e bd 63 59 9f bc
       -0.5273185 0.14247243 -0.06209631 -0.019451803
000160 04 29 a1 3e 09 20 34 bd 08 eb f9 3e da a7 40 bd
       0.31476605 -0.043975864 0.48812127 -0.047035076
000170 c2 0f e5 bd a3 d6 d3 3e 61 29 ce bc 63 f3 f0 be
       -0.11184646 0.41374692 -0.025166215 -0.4706069
000180 83 a9 48 be 99 66 8e 3c 84 f3 c8 3e f6 82 62 3f
       -0.19595914 0.017382907 0.39248288 0.8848108
000190 80 1c 57 be 0e 61 24 be f9 c2 19 bd 47 cb 11 3e
       -0.21006966 -0.16052648 -0.037539456 0.142377
0001a0 91 57 66 be 83 8c 88 3e c9 28 0d 3f fb 04 c6 be
       -0.22494341 0.26669702 0.5514036 -0.38675675
0001b0 8a 25 30 3e c0 71 16 3f 9d 22 0a bd ec a6 94 3d
       0.1720182 0.5876732 -0.033724416 0.072584
0001c0 a3 65 97 3c c3 a4 ee 3e a6 1a b1 3e 5b 7a 8f be
       0.018481081 0.46610078 0.34590644 -0.28023037
0001d0 18 c2 64 bd 0d 34 fe 3c f5 c8 40 be 35 2c ca be
       -0.055849165 0.03103068 -0.18826659 -0.39486852
0001e0 8b 45 f1 3e ab bb 1c be d6 a0 a3 bd df ac cd 3e
       0.4712337 -0.15305965 -0.079896614 0.40170953
0001f0 54 41 a0 3e 45 6e e1 be ca 65 fa be 49 11 35 3e
       0.3129984 -0.4402944 -0.48905784 0.17682375
000200 14 c7 c6 3c 05 68 3f 3f 59 50 3c 3f 15 f6 49 bf
       0.02426485 0.74768096 0.735601 -0.78891116
000210 d7 84 b2 bc fc 36 fc 3d 45 fe c9 3d af 80 03 3e
       -0.021791859 0.12315175 0.09862951 0.12842058
000220 26 fc 1e bf bb c0 d9 3e 68 e1 05 3e 6f c5 b5 bd
       -0.621035 0.42529854 0.13074267 -0.08875548
000230 eb e0 26 3e a4 46 d4 3e 95 83 b1 3e 17 ba 5c bf
       0.16296737 0.41460145 0.34670702 -0.8622145
000240 cd f6 85 3c f2 08 a0 be bf 54 98 3c 11 23 68 be
       0.016353035 -0.31256825 0.018595098 -0.22669627
000250 eb 4d 70 bf 6f cb cd bd ea f1 35 3e 64 3e 03 bf
       -0.93868893 -0.100485675 0.17768064 -0.51267076
000260 37 5e 6d bd da a0 ca 3e 47 50 52 3f 12 8a 04 bf
       -0.05795118 0.39575845 0.82153744 -0.5177318
000270 93 91 54 bb c5 1b 28 be 49 f6 23 bd e3 52 f2 be
       -0.0032435402 -0.16416843 -0.040029798 -0.47328863
000280 a8 4f f1 be cf e9 49 be 58 3d b6 3e 72 44 98 be
       -0.47131085 -0.19718097 0.35593677 -0.2973972
000290 9b 50 40 3e e7 bf 18 3f ff ce f1 3e 84 05 dd 3c
       0.18780749 0.5966782 0.47228238 0.02698017
0002a0 57 73 3f 3e ea 4c 5b 3e 49 5a 26 3e 82 7d 87 bd
       0.18696342 0.21416059 0.16245379 -0.066157356
0002b0 57 29 95 bd 27 61 14 bc 04 4c bc 3d ac 26 95 bd
       -0.072832756 -0.009056366 0.09194186 -0.07282767
0002c0 30 2e c6 3e 8e 69 99 3e 3c f4 48 bf 27 48 b5 be
       0.38707113 0.29963344 -0.7849767 -0.3540661
0002d0 a3 0a 63 be 18 5e 96 be 3d be 42 be e6 d5 16 3f
       -0.22172026 -0.29368663 -0.19017883 0.58920133
0002e0 8b 17 96 be f1 41 36 bd 51 2f 88 3e c0 38 00 be
       -0.29314837 -0.04449648 0.265986 -0.12521648
0002f0 db 8c d6 bd 9c ea af be 9a 78 4a 3b 8f bc 2f 3f
       -0.10476085 -0.3435868 0.0030894638 0.6864709
000300 fe 0c 06 be ba 00 04 3f a2 dc cd bc b4 b3 c8 3e
       -0.13090894 0.5156361 -0.02512962 0.39199603
000310 d7 f7 6b 3f cf 76 22 bf c4 d1 d6 bc 92 ae 5c 3e
       0.9217505 -0.6346254 -0.02622307 0.21550968
000320 20 16 76 bd 6e 64 a9 bd 28 51 0d 3f f7 64 d1 3d
       -0.060079694 -0.082711086 0.5520196 0.10224336
000330 81 f3 8a 3e cb a2 c3 3d 22 0e f4 3e 7a c2 70 be
       0.27138904 0.09552535 0.47667032 -0.23511687
000340 b6 bb a0 3e 9f cc 1f 3f 47 23 01 3e 66 fe fc be
       0.31393212 0.624216 0.12611113 -0.4941284
000350 64 70 07 bf a7 d9 9f 3b 8c 82 f8 be e8 59 e7 bd
       -0.5290587 0.004878241 -0.485371 -0.11296445
000360 9e 93 c7 3d d1 db 49 be 10 9d b3 3e 9e 14 d0 3e
       0.097449526 -0.1971276 0.35080767 0.4064073
000370 83 fa 86 3e 0d 17 04 bf f7 5b d9 be 69 57 9f 3e
       0.26363 -0.5159767 -0.42452976 0.31121376
000380 79 96 98 be b2 fc 82 3e ce 1d 26 bf 92 bc 70 3f
       -0.29802302 0.25583416 -0.6488923 0.94037735
000390 5a 4b c2 3e 3a a0 3f 3d d1 84 96 bd ab 9b 26 3e
       0.37948114 0.046783663 -0.073495515 0.1627032
0003a0 36 c1 9e be 9d 4a 63 bf 1b 42 c8 be cd ed 46 3e
       -0.31006783 -0.88785726 -0.39112934 0.19426651
0003b0 93 a9 96 be 29 d8 81 3e a6 24 8a 3e b7 5b 02 be
       -0.2942625 0.2536023 0.26981086 -0.12730299
0003c0 f8 2f 26 bd 37 a3 96 3d 1c 89 86 3d 41 4f df 3d
       -0.04057309 0.073553495 0.0656912 0.10903788
0003d0 bb 7f 8d bf 78 66 c3 3e 69 15 83 be dd 74 e1 3d
       -1.1054605 0.38164115 -0.25602272 0.11008618
0003e0 f8 8e 6f bd 88 81 08 bf e2 ac 38 3e db 68 ae 3e
       -0.058485955 -0.5332265 0.180347 0.34064373
0003f0 15 7f f0 3e 38 87 a5 bd 0d 99 53 be 4c df 18 3e
       0.46971956 -0.080824316 -0.20663853 0.14928931

model.encoder.in_layer.convs.0.lin_r.bias f4 [64]
000000 73 e8 0d 3f 25 be e7 be 90 cb 76 3e ed 06 50 be
       0.55432814 -0.45262256 0.2410109 -0.20315142
000010 0c 60 43 3e d5 2d 34 3d a7 04 54 be 33 20 ca 3e
       0.19079608 0.04398902 -0.207049 0.3947769
000020 40 1a 35 3e e9 1c 43 3d a2 b5 16 bf c0 13 c4 3e
       0.17685795 0.047634993 -0.588709 0.38296318
000030 21 de 71 be 7c 1f 44 bf cf 5c 4f 3e 55 9c 43 be
       -0.23619892 -0.7661054 0.20250247 -0.19102605
000040 84 97 2f be 54 b0 ef be f4 4b 75 3e ec 48 38 be
       -0.17147642 -0.46814215 0.23954755 -0.17996567
000050 d8 2d b5 be b9 89 fe bd 63 42 55 bd a8 68 b6 3d
       -0.35386539 -0.12428612 -0.052065264 0.0890668
000060 0b 4e 55 bf 7b ae 6e bf c5 48 84 bd 86 db 99 be
       -0.8332221 -0.93234986 -0.06459192 -0.30050296
000070 ff 31 a8 be 36 e0 10 3f 63 05 10 be 98 f6 10 bf
       -0.32850644 0.5659212 -0.14064555 -0.5662627
000080 0a 03 b6 3e b5 e8 18 be 36 90 94 3d dd e2 9b 3e
       0.35549194 -0.1493252 0.072540686 0.3044652
000090 11 20 4d be 1f 2f a8 3e eb 57 8c 3e 82 8c d2 3e
       -0.20031764 0.3284845 0.27410826 0.41122824
0000a0 a0 0e 19 bf b7 5a b0 be d2 f3 34 be 77 d2 17 3f
       -0.5978794 -0.3444421 -0.17671135 0.5930552
0000b0 c0 f9 84 be d8 45 b2 be a4 dc d0 bc 76 0d 4f 3f
       -0.25971794 -0.34818912 -0.025495835 0.80879915
0000c0 ee 3e b3 3e 75 b1 a7 3d 55 a9 1a 3f 6d 09 a3 3e
       0.3500895 0.08188144 0.6041463 0.3184313
0000d0 7a d9 c4 3c de 68 1c bf 92 16 15 bf b0 d3 41 be
       0.024029482 -0.61097515 -0.58237565 -0.18928409
0000e0 79 01 e9 3e 85 6c 48 3c c0 64 01 3f 71 68 b0 3e
       0.45508936 0.012232904 0.5054436 0.34454682
0000f0 11 6b fa 3e 56 60 88 3e a0 c1 36 be e6 a3 ab 3e
       0.4890981 0.26635998 -0.178473 0.33523482

model.encoder.in_layer.convs.1.att f4 [1, 1, 64]
000000 77 e6 20 3f db a7 c8 be 70 19 2b bf 3d bc 1b bf
       0.6285166 -0.39190564 -0.6683569 -0.60834104
000010 db 4d f0 3d 1d b1 1b bf 44 a5 ef 3e 23 da 12 bf
       0.117336 -0.6081713 0.46805775 -0.573641
000020 0e 7e 58 bf 82 7f a7 3e ca 40 bf bf 46 68 54 bf
       -0.84567344 0.32714468 -1.4941647 -0.8297161
000030 01 7b 65 3f f9 ea 60 3f 67 4c 6b bf a3 d5 4a 3f
       0.89640814 0.8785854 -0.91913456 0.79232234
000040 d2 1d 0e 3f 4e b7 44 3f 31 58 99 be 9f 82 91 bf
       0.5551425 0.768422 -0.29950097 -1.1367987
000050 ef a9 4b bf b2 ee d6 3e 75 4b 49 3e bf ee 4b 3f
       -0.79556173 0.41978985 0.19657691 0.7966117
000060 50 e3 0a bf 1f 89 62 bf f4 7d 2c 3e fa 8c 0a bf
       -0.542531 -0.8849048 0.16844922 -0.54121363
000070 90 3e f0 3e 05 81 b6 3e 27 d4 c2 3f fd fc ea 3d
       0.4692273 0.3564531 1.5220994 0.11474035
000080 86 12 3d 3f 2a 02 dd be 64 58 07 bf 13 ea 87 bf
       0.7385639 -0.43165714 -0.5286925 -1.0618309
000090 2f 42 31 bf 81 fb 27 bf eb 22 56 3e 32 9c 79 3e
       -0.69241613 -0.6561814 0.20911758 0.2437599
0000a0 b4 b5 36 3f 98 9a 97 3f 21 61 92 be c5 d3 d5 3e
       0.71371007 1.1844053 -0.28589728 0.4176313
0000b0 50 2a 3e 3f 3e 12 3b 3f cd 2c 4d 3f 23 6b d9 3e
       0.74283314 0.7307471 0.80146486 0.4246455
0000c0 6e 3a 97 bf f7 8c 81 3f d4 3b 1c 3f 84 14 3c 3f
       -1.1814706 1.0121144 0.6102879 0.73468804
0000d0 05 42 17 3f 7b 69 c6 bf 75 18 4d bf 43 6c 1e 3f
       0.5908511 -1.550094 -0.80115443 0.61883944
0000e0 ac 9f 82 3f bd 3e 10 3f 37 b5 46 3f 83 13 a5 be
       1.0204978 0.5634573 0.7762026 -0.3224145
0000f0 ec fe 06 3f 73 a0 11 3f 0c 7f 2d bf 30 55 e7 be
       0.5273273 0.5688545 -0.67771983 -0.4518218

model.encoder.in_layer.convs.1.bias f4 [64]
000000 40 c1 69 be b5 38 9b bc 14 52 fb bc bc 3b 47 be
       -0.22827625 -0.018947938 -0.030678786 -0.1945638
000010 3d f8 bb bb b8 74 3d be a6 a5 00 3d 66 68 95 bb
       -0.0057363794 -0.18501556 0.031407975 -0.0045595644
000020 3b 71 92 3c 18 3e 2e be c4 96 83 3d 47 83 b8 3d
       0.017876258 -0.17015874 0.06425241 0.09009414
000030 5a 90 cb 3c d8 76 89 3d 8e d3 19 be da 7a dc bd
       0.024849106 0.06712121 -0.15022108 -0.107656196
000040 11 a8 0e bd 12 0f c2 3d f7 b1 8f 3d 8f 10 52 bc
       -0.03482825 0.09475531 0.07016366 -0.012821331
000050 02 94 6a 3d 8b 02 9f bd 4e 32 63 bd b1 ed 11 3c
       0.057270057 -0.07764157 -0.055467896 0.008906768
000060 e0 5e e4 bd ad c0 19 3d 56 d6 2c 3d b2 0e da 3a
       -0.111509085 0.037537266 0.042196594 0.001663646
000070 25 6a 9d 3d c1 4f 00 be 00 3f 8a 3c db fb fe 3d
       0.07686261 -0.12530424 0.016875744 0.12450381
000080 75 c3 4a 3d 5b 2b 9c bd 89 55 c8 bd 42 a4 2e 3d
       0.04950281 -0.07625457 -0.097819395 0.042637117
000090 c6 a0 37 be 8e ab ee bd 74 71 29 3e 20 fc 68 be
       -0.17932424 -0.11653815 0.16547185 -0.22752428
0000a0 1f 8a 3f bd 73 c9 b9 bc c6 dd bc 3d 5f 75 56 bd
       -0.046762582 -0.022679066 0.092219874 -0.052358028
0000b0 8a 9f 22 bd ff 4a 29 bd c1 78 15 bd aa 25 b1 bc
       -0.03970293 -0.041331287 -0.036492113 -0.021624405
0000c0 5f 6d 09 3d 21 bd 46 3d 4f 25 a2 3d f8 70 24 3d
       0.03355157 0.04852021 0.07917272 0.040146798
0000d0 6e b2 78 3d 02 ad 0e 3e c7 1c a2 bd 3f 1c 4c 3d
       0.06071704 0.13933185 -0.07915645 0.049831625
0000e0 68 dc b7 3d 68 6a 13 3e a4 ce 76 3c 4e 88 b8 3e
       0.08977586 0.1439606 0.015063915 0.36041492
0000f0 19 b4 9f be 32 23 85 3d c2 58 80 3d 17 9c 73 ba
       -0.3119209 0.065008536 0.06266929 -0.00092929736

model.encoder.in_layer.convs.1.lin_l.weight f4 [64, 64]
000000 76 32 93 3e 20 d0 ce 3d 3e cd 9d bd ea e2 3c bd
       0.28749436 0.100982904 -0.077051625 -0.04611484
000010 db 82 8a 3e 71 31 52 be 3a d6 5e 3e ad bd 30 bf
       0.2705296 -0.20526673 0.21761408 -0.6903942
000020 ae 35 01 bd bf 3e b7 3d e9 fd 14 3e 62 86 ee 3c
       -0.031545334 0.08947515 0.14549984 0.029116813
000030 e4 07 9a 3d 37 f2 98 3d 48 b6 20 bd 10 e9 f1 be
       0.07521036 0.07468074 -0.039236337 -0.47248125
000040 e8 af a1 3d 1c 40 ad 3d 56 cd 80 bd 4f 49 69 be
       0.078948796 0.084594935 -0.06289165 -0.22781871
000050 60 ff 91 3e 32 2d a1 bd 14 c9 69 be e2 98 b9 be
       0.28515148 -0.078699484 -0.22830611 -0.36249453
000060 c9 49 ef 3d 59 a2 c9 be 8a 91 45 be 26 20 e7 bd
       0.11683995 -0.39381674 -0.192938 -0.11285429
000070 86 82 fd bc 2a af c1 3c 6f 7a a9 be 4b 1f 76 3e
       -0.030946027 0.023643095 -0.33101222 0.24035375
000080 f8 c6 6a 3e 32 a3 5a be df 2a d9 bd f2 24 c9 3d
       0.22927463 -0.21351317 -0.1060388 0.098215
000090 35 f3 13 be 51 4f 1e 3e 57 46 5e 3e a3 f7 94 be
       -0.14448245 0.15459944 0.2170652 -0.29095182
0000a0 82 b8 91 3d 1f 76 5a 3e 1c 9e 01 3e 8a bc 2f bf
       0.0711527 0.21334122 0.1265797 -0.6864706
0000b0 d9 10 d2 be 09 97 f5 3d 13 60 7a 3e dd e3 00 be
       -0.4102848 0.11991698 0.24450712 -0.12586923
0000c0 fc 22 f6 be 91 e3 25 be ec dc cc 3c ed b2 16 3d
       -0.48073566 -0.16200091 0.025007688 0.03679173
0000d0 79 00 93 bc d2 6d 3c bf 5d 60 a5 bd 57 b6 a8 be
       -0.017944561 -0.7360507 -0.080750205 -0.32951614
0000e0 7a 67 44 3e b1 de 06 bf 97 67 99 be a2 15 8b bd
       0.19180098 -0.5268355 -0.29961845 -0.067912355
0000f0 0e 17 0e 3e 15 a5 25 be 08 d6 af bc 35 4f 82 3c
       0.13875982 -0.16176255 -0.021464363 0.01590691
000100 5e c2 27 3e 9b 68 54 be dd 1b b1 bd 67 ee 34 3e
       0.16382739 -0.20743029 -0.086478926 0.17669068
000110 55 25 01 bf 2e 87 28 bf bf 0a 78 be 1a ca 01 3e
       -0.5044759 -0.6583127 -0.2422285 0.12674752
000120 ca 47 00 be c0 4b e2 3c ba 27 e4 3d a3 ec 59 3e
       -0.12527385 0.027624011 0.1114039 0.21281676
000130 38 7d 3b bf 63 07 2d 3e 17 5a a8 be 1d 56 3a 3e
       -0.73237944 0.16897349 -0.32881233 0.18196912
000140 94 8a bc 3b 18 bd bf bc 19 b4 6a be c6 9c e9 be
       0.0057538245 -0.023405597 -0.22920264 -0.4562742
000150 74 e8 ca 3d 7f 79 a8 be 97 27 97 3e 46 6f 95 3e
       0.09907618 -0.32905194 0.29522392 0.29186457
000160 28 e0 28 bf 98 0a 0f 3d c3 71 f5 3d 80 96 9a 3e
       -0.65967035 0.034922212 0.11984589 0.30192947
000170 4c c3 7e 3d c9 4f fd bc 47 1d 3a 3e 66 8a 8a 3d
       0.06219797 -0.030921834 0.18175231 0.06764679
000180 03 54 b9 be 2d 1f 80 3d 62 9a 85 bd 92 fd 81 be
       -0.36196908 0.06255946 -0.06523587 -0.2538877
000190 9e 9c 81 3d 30 0a cb 3d e8 7a 04 be dc 02 b3 3e
       0.063287005 0.099140525 -0.1293751 0.3496312
0001a0 b1 c3 d6 be ec 56 14 bd ea e1 cc 3e bf a6 06 3e
       -0.41946176 -0.036215708 0.4001611 0.13149546
0001b0 2e 94 3a be 82 35 55 bd 9b 04 20 be 6a 75 49 bc
       -0.18220589 -0.052052982 -0.15626757 -0.01229606
0001c0 49 59 85 be fd 1f ce 3e 38 94 3b be 75 22 d9 bd
       -0.26044682 0.4025878 -0.1831826 -0.10602275
0001d0 4d d2 65 bd fe 00 80 bd ae be 4b be 78 d3 59 3e
       -0.05610876 -0.06250189 -0.19896957 0.21272075
0001e0 2b 5a 98 be 49 2d b5 be e5 4e d4 be 19 48 b1 bd
       -0.29756293 -0.35386112 -0.41466442 -0.0865633
0001f0 6b 2d 54 3d bc 41 a2 3e 00 ad d6 bd 05 63 11 be
       0.051801126 0.31690776 -0.10482216 -0.14197929
000200 55 4b 22 bf 44 87 2a be 7f ff c2 bd b9 2b 07 be
       -0.633962 -0.16653162 -0.09521388 -0.13200273
000210 bd 20 31 3d d5 66 34 be 5e 76 b3 3d f1 e0 2a bf
       0.043244112 -0.17617352 0.08762811 -0.66749483
000220 fb 45 ba bd ed 19 13 3c b7 21 0a bd ef d0 8c 3e
       -0.09095379 0.008978349 -0.03372356 0.27503154
000230 84 1c 00 3f 50 68 ce bd 64 b1 b3 3d 26 2e 38 be
       0.5004351 -0.1007849 0.08774069 -0.17986354
000240 9e c5 d3 be 8f 19 a9 bd 38 32 06 bc 06 af 34 3e
       -0.41361707 -0.08256828 -0.008190684 0.17644891
000250 ee 35 f5 bd 2d 5d d6 3d e4 4a 01 3e 39 9d 78 3e
       -0.11973177 0.104669906 0.12626225 0.24278726
000260 eb 1a 30 3e 9d 7c d6 3d 23 e7 98 bd 83 dc 28 3d
       0.17197768 0.10472987 -0.07465961 0.04122592
000270 d2 1f eb be af 1b bf 3e e0 98 a6 be 65 a6 1a be
       -0.45922714 0.37325808 -0.3253851 -0.15102537
000280 91 37 8e 3e 9b 5f 9b 3e 34 68 fd 3d 53 ad 9a 3e
       0.2777677 0.3034638 0.12373391 0.3021036
000290 a6 4d c9 3d de a7 2e 3d 93 a0 c5 3d 3a 43 44 be
       0.098292634 0.04264056 0.09649768 -0.1916627
0002a0 32 ce 30 3f 82 31 c5 3d f0 01 dc be 19 00 d8 bc
       0.6906463 0.096285835 -0.42970228 -0.026367234
0002b0 33 1e 4f 3b da f4 2d be 8e ff 28 3e fc 0e 75 bd
       0.0031603693 -0.16987935 0.16503736 -0.059828743
0002c0 fa 9d 11 3e 2a ad 8c be b3 0a 87 3e 9e 48 a3 bc
       0.1422042 -0.27475864 0.2637535 -0.019932088
0002d0 a8 01 88 bd a8 54 90 be 41 74 06 3e 1b b2 3d be
       -0.06640941 -0.28189588 0.13130285 -0.18524973
0002e0 14 1b ed 3e fb eb b2 3e 15 34 bf bc 94 df be be
       0.4630972 0.34945664 -0.023340264 -0.37279952
0002f0 2a 26 42 be a5 a1 8c 3d cc 79 7b be eb 8f b8 be
       -0.18959871 0.06866769 -0.2455818 -0.360473
000300 08 00 5e 3e f8 af b6 3e 6b 4e 53 be 16 5c 82 3e
       0.216797 0.35681129 -0.20635383 0.2546088
000310 31 8b 8d 3e 61 36 35 bf 4f 1d 11 3e c5 0a 9b be
       0.27645257 -0.707861 0.14171337 -0.30281654
000320 08 23 6c be e3 ae 3e 3e dc ce fe be 68 7c b7 3c
       -0.23060238 0.18621401 -0.49767196 0.022398189
000330 4b 28 8c 3e d5 15 5b be 94 98 bb 3d 0f 88 d9 3c
       0.2737449 -0.21395047 0.09159961 0.026554136
000340 e3 e0 01 be aa f3 2e bf b8 a8 ce 3d c8 0b d0 3e
       -0.12683444 -0.6834055 0.10090774 0.40633988
000350 56 78 59 bd 0c 92 10 bf 43 15 57 be be 76 ab 3e
       -0.053093277 -0.5647285 -0.21004204 0.3348903
000360 9f e2 6c bd 5d 16 23 be 06 cb c5 be 68 d9 2f be
       -0.05783331 -0.159265 -0.38631457 -0.17172778
000370 b8 a3 9f be 77 fb 2b 3e 8b 97 fc 3c a4 76 89 bd
       -0.31179595 0.16795145 0.03083398 -0.06712082
000380 dc cf 48 3e cd 68 0b bf ca 75 3a 3e 99 1c 6e 3d
       0.19610542 -0.5445679 0.18208995 0.05813274
000390 18 64 86 3d 52 26 88 bd 12 24 9a be 79 25 10 bf
       0.0656206 -0.06647934 -0.30105644 -0.5630718
0003a0 fc bb 4e 3e b8 77 78 be f6 c0 5b 3e 26 64 fe bd
       0.20188898 -0.24264419 0.21460328 -0.124214455
0003b0 70 09 36 3e e7 1b 08 3c 5f 26 3b 3e ee 83 00 3e
       0.17777038 0.008307434 0.18276356 0.12550327
0003c0 69 b2 df be f3 e5 e8 3d 01 9f 84 be 54 24 4c bd
       -0.43690804 0.11371984 -0.2590256 -0.049839333
0003d0 66 fe fa bd c0 55 ab 3e 1d 2f 96 bb 84 5b 27 bd
       -0.12255554 0.3346386 -0.004583253 -0.04085876
0003e0 8f 91 15 be bd 85 9a 3e da 8f 30 bf 51 11 c0 3d
       -0.14606307 0.3018016 -0.689695 0.09378303
0003f0 09 e9 a0 3c d2 20 65 be 9a dc b2 3e 5c de 42 be
       0.01964237 -0.22375801 0.3493393 -0.19030136

model.encoder.in_layer.convs.1.lin_l.bias f4 [64]
000000 d8 dc 51 3d b4 30 42 bd 6f 09 c4 3c b6 1b c2 bd
       0.051236004 -0.04740973 0.02393028 -0.09477942
000010 38 34 67 bc 0c ea 36 be ad c3 09 3e 6d 19 21 3d
       -0.014111571 -0.1786272 0.1345355 0.03933089
000020 e3 15 ef 3d 2a 67 73 be 3a 07 5e bb ef 91 c2 3d
       0.116740964 -0.23769823 -0.003387882 0.09500491
000030 fc 06 b5 bc d3 06 2a 3e bb e0 53 bd e6 8e 73 be
       -0.022098057 0.16604166 -0.05172799 -0.2378498
000040 cf ac 51 bd 2d a4 37 3e 44 09 29 3d 7b 49 b5 bc
       -0.051190194 0.17933722 0.041268602 -0.022129765
000050 47 fa fd 3d 6a b5 6c bc 09 74 92 3d 6e 33 65 bc
       0.12401252 -0.014447549 0.07151038 -0.013989313
000060 a1 ac 91 bd 48 20 d6 3c 74 6b ea 3c 6f 72 00 3e
       -0.071130045 0.02613844 0.02861569 0.12543653
000070 4a 31 da 3d 30 c2 d0 bd 37 0b ec 3d 1f eb 04 3d
       0.106539324 -0.10193288 0.115255766 0.03245079
000080 d1 01 b0 bd ca 1d 99 bd f1 93 67 3c 58 43 6d bd
       -0.085940965 -0.07476385 0.014134393 -0.057925552
000090 41 46 a5 be df 89 63 be f4 e6 84 3d a5 e6 3d be
       -0.32280162 -0.22220562 0.06489363 -0.18545015
0000a0 03 03 f1 bd 31 c9 78 3d 3b 96 55 3e 34 df 94 bd
       -0.117681526 0.060738746 0.2085809 -0.07269135
0000b0 2f 52 e8 bd 34 e4 5d 3c 5e 6f 2a bd fe 4f a1 bd
       -0.113438 0.013543177 -0.041610114 -0.078765854
0000c0 7a 44 1e 3d 73 54 d9 3c b9 e2 3f 3e 24 16 9a bd
       0.038639523 0.026529526 0.18738832 -0.07523754
0000d0 e8 73 1c 3e 16 ef ef 3c 73 1e 22 bd 56 45 63 bd
       0.1527859 0.02928881 -0.03957982 -0.055486046
0000e0 80 a7 59 3e f1 16 47 3e c1 04 bb 3b 28 c5 f2 3e
       0.21255302 0.19442345 0.005707354 0.47416043
0000f0 7e 02 bb be c4 b4 a6 bc ef d3 a6 3d 9d 3e aa bc
       -0.3652534 -0.020349868 0.08145892 -0.02078181

model.encoder.in_layer.convs.1.lin_r.weight f4 [64, 64]
000000 a0 d7 83 3e 1a c9 3d 3d ff c4 91 3e d9 db 4b 3c
       0.25750446 0.046334364 0.2847061 0.0124425525
000010 62 5c be 3c dd f0 d3 3d 8a fc 0b 3e 62 a4 ba 3d
       0.023237411 0.103486754 0.13670555 0.09113385
000020 ce 4f ad 3e 67 8f 4d be 11 14 43 3e c6 83 58 be
       0.3384995 -0.20074235 0.19050623 -0.21144018
000030 af 49 3c 3e 5a 51 cb 3e ec b5 3f be 22 d0 73 3e
       0.18387483 0.39710504 -0.18721741 0.23809865
000040 80 74 bd 3d 9b 9d ec 3e 41 b6 af be 91 c1 0b 3e
       0.09250736 0.46213993 -0.34318736 0.13648058
000050 7c 59 99 3e e9 2b 41 3e 33 a9 75 3d 40 d0 45 3f
       0.29951084 0.18864407 0.059975814 0.7727089
000060 e0 33 3c be c7 95 42 3f 00 53 77 3e 6e 09 a6 3e
       -0.18379164 0.7600979 0.24152756 0.3242907
000070 a5 ca 8c 3e ba 89 20 bd 0c 41 ff be a9 ef d0 3e
       0.27498356 -0.039193846 -0.49854314 0.40807846
000080 4a 03 9d bc 51 65 7a 3e 41 26 5d 3e 9e c3 a3 be
       -0.019166607 0.24452712 0.21596624 -0.31985182
000090 a4 64 b8 3d 3c 3f 0f 3e 6e cf a2 bd 17 b6 36 3f
       0.09003571 0.13988966 -0.0794972 0.713716
0000a0 c8 dc d3 be 9d b3 13 be 4b 15 55 3e 58 09 ad 3d
       -0.4137938 -0.14423986 0.20808904 0.08449048
0000b0 12 7a 69 bd 1a a4 19 bb 1f 62 bb bd 8b 46 67 bd
       -0.05700118 -0.002344376 -0.091495745 -0.05646376
0000c0 5c ae 12 3e 77 34 b6 3c 1a 21 94 3e b4 de ca be
       0.14324325 0.022241814 0.28931504 -0.39623034
0000d0 0e e4 aa 3e b8 5f 04 3e d8 eb 2a 3e 59 46 d3 3e
       0.33377117 0.12927139 0.1669153 0.41264609
0000e0 db dd 02 be 88 29 79 be b3 99 4b bf 33 7d 00 3e
       -0.12779944 -0.24332249 -0.795314 0.1254776
0000f0 9c 4c 95 3e d0 ad a6 bd 24 96 06 be 94 7b 36 3f
       0.2916001 -0.08138621 -0.13143212 0.71282315
000100 47 95 3b be 60 26 b0 bd 83 5f 9e be 20 c4 8c 3e
       -0.18318664 -0.086010695 -0.30932245 0.27493382
000110 20 f5 ac be 81 a9 2c be 21 8d 54 3e 59 26 e1 be
       -0.33780766 -0.16861536 0.20756961 -0.4397457
000120 fa 91 6b be 2f 21 12 be 61 5e 1b bf 3b 61 87 bd
       -0.23004904 -0.14270471 -0.60690886 -0.06610342
000130 3a 84 0b 3e 98 84 e4 bd 2b 0f 04 bf cc 39 c9 be
       0.13624659 -0.11158103 -0.51585644 -0.39301908
000140 d0 46 dc bd f9 2b 13 bf fd 5e 99 bd 04 b1 9a 3c
       -0.10755694 -0.5748897 -0.07488821 0.018883236
000150 f2 80 90 be 27 cf d8 bd d8 d7 5a 3e 4f 48 03 be
       -0.28223377 -0.10586386 0.213714 -0.12820552
000160 9b 12 48 bd df 34 c5 bd d3 b9 e5 bd 3b 77 cb bd
       -0.04884587 -0.09629225 -0.11217084 -0.09934851
000170 da 00 e2 be 32 15 f3 bd 55 7f a9 3d 76 3d 7f be
       -0.44141275 -0.11869277 0.0827624 -0.24925789
000180 14 f5 1a be a0 65 86 3d ca 33 ab be 3a ec 93 be
       -0.15132552 0.06562352 -0.3343795 -0.28891164
000190 45 5c 0f be 8e 00 1a be 75 c1 d9 bc ef a2 31 3e
       -0.14000042 -0.15039274 -0.026581505 0.1734731
0001a0 1a 26 a2 be e7 7d 40 3e 01 3a aa be 56 0e 82 be
       -0.31669694 0.18798028 -0.33247378 -0.25401562
0001b0 0e 31 d5 bd 47 15 a3 be a7 80 cb 3e 94 5b 93 be
       -0.10409747 -0.3185217 0.3974659 -0.28780806
0001c0 c9 ea f6 be 21 d5 96 bd 2f 44 2a bd 52 f0 3f 3c
       -0.48226002 -0.0736487 -0.04156893 0.011715012
0001d0 55 05 0e 3d 8c 09 7f be 07 e5 09 3e 91 f0 1e be
       0.034673054 -0.24905986 0.13466273 -0.15521456
0001e0 f6 7c 35 bd 14 a8 db bc 6d 87 06 bf 69 e4 05 3e
       -0.044308625 -0.026813544 -0.52550393 0.13075413
0001f0 2c 6a 43 be c5 45 9a be 18 cc d7 3e ae 99 a6 bd
       -0.1908347 -0.30131355 0.421479 -0.08134781
000200 80 79 d5 bd a2 a2 04 3f 6a c9 36 3f b7 33 81 be
       -0.10423565 0.5181066 0.71401083 -0.25234768
000210 5d 0c f2 3c e4 5f 38 3f 76 4a 1e bd 6f 1b bc 3e
       0.02954691 0.7202132 -0.03864523 0.3673968
000220 0a 33 0a 3e d1 e0 93 3d b1 f2 7b 3e fc d6 18 be
       0.13496032 0.07220615 0.24604298 -0.1492576
000230 f8 97 70 3c d6 a9 81 3e e6 e7 53 be b6 b6 9f 3e
       0.01468467 0.25324887 -0.20693931 0.31194085
000240 14 5f 9a 3e b0 83 b1 3e 3d c4 9f bd 71 00 88 bc
       0.30150664 0.34670782 -0.07801101 -0.016601773
000250 86 98 36 3f 77 9b af 3d f7 7d 05 3e c9 27 8d 3c
       0.7132648 0.085745744 0.13036333 0.017230885
000260 25 e3 7a be 17 45 1a 3d 68 63 d8 3e 33 03 14 3f
       -0.24500711 0.037663545 0.4226334 0.5781738
000270 6a 67 3a 3e 50 42 1d be 81 b5 34 3d 58 c8 02 bd
       0.18203512 -0.15357327 0.044118408 -0.031929344
000280 63 51 03 3f 4e a5 ad 3e d9 a3 92 3d 8c 67 3a 3e
       0.5129606 0.3391518 0.07160158 0.18203562
000290 e0 75 c1 3e 25 09 2f 3e b1 01 b6 3e 44 27 57 3b
       0.37785244 0.17093332 0.35548165 0.00328298
0002a0 26 ca 43 be 01 93 c4 3e ce 78 36 bd c7 b5 d6 3d
       -0.19120082 0.38393405 -0.044548802 0.1048389
0002b0 75 63 3c 3e 29 ce 57 be 1e 3b ea bc 0d ef b1 3e
       0.18397315 -0.21074738 -0.028592642 0.34752694
0002c0 37 f0 f1 3d 6d 8e e4 bc e5 b6 91 3e b8 68 b0 be
       0.118133955 -0.027899945 0.2845985 -0.34454894
0002d0 bd c2 8a bd 3e 3b 30 3e 0f 5c 81 3e 57 f9 35 3f
       -0.06775425 0.17210099 0.25265548 0.7108359
0002e0 35 f1 50 3d be e0 af 3d 7c fd 88 3d 8e 48 47 bb
       0.051011283 0.08587788 0.06688973 -0.0030408236
0002f0 e9 fc 0b 3f 16 b2 bc 3e 15 4f 08 be 00 3f 1b be
       0.54682785 0.3685462 -0.13311417 -0.15160751
000300 db 9f 0f 3f 0f e8 07 bc a1 d3 cc 3e 36 16 c6 3c
       0.56103295 -0.008295073 0.4000521 0.024180513
000310 11 7c 8b 3e 38 ea a0 3c f3 1e 1e 3e 47 55 85 3e
       0.27243093 0.019642934 0.15441494 0.26041624
000320 ce ba 05 3e ca 67 4d 3e 3b 0f e4 3d a6 ea 4f 3e
       0.13059542 0.20059124 0.111357175 0.20304355
000330 4b e6 b7 3d 09 92 b5 bb 83 0b c5 3d ae 8f e6 be
       0.08979472 -0.0055410904 0.09621336 -0.45031494
000340 d2 7c e2 3e eb 64 f4 be d1 31 35 3e 92 8e 68 3c
       0.44235855 -0.47733244 0.17694785 0.014194148
000350 1f 35 d6 bd 45 86 2a ba 54 b1 7d bb 7b 69 b8 3e
       -0.10459351 -0.0006504993 -0.0038710432 0.36017975
000360 97 a1 24 3d ae 6b 8a bd 67 dd 7f be d7 70 bc 3e
       0.040193167 -0.067588195 -0.24986802 0.3680484
000370 55 90 d2 3e bc ac a5 bd 1c 71 ab 3e 77 08 55 be
       0.41125742 -0.08089587 0.33484733 -0.2080401
000380 f6 83 5e 3d 93 ae 29 be 30 64 b4 bd e5 16 f2 3c
       0.054325067 -0.16570501 -0.08808172 0.029551933
000390 4b 99 31 3e 44 57 c0 3e 67 e0 d7 3e 84 f8 38 be
       0.17343633 0.37566578 0.42163393 -0.18063551
0003a0 1b b7 3f bf ac 73 9b be 90 42 77 bd 9b c2 cb bd
       -0.7488877 -0.30361688 -0.060366213 -0.099492274
0003b0 70 73 b7 3e b1 49 4f 3e e0 87 9d bd 72 d7 38 3e
       0.3583026 0.20242955 -0.07691932 0.18050936
0003c0 c4 eb 04 3f 44 7f cb bd bb 7f a8 3e 05 02 4e 3e
       0.5192225 -0.09936383 0.3290995 0.20117958
0003d0 f6 e9 8c be b5 e5 ea 3d da 93 96 bd db 34 c1 3e
       -0.27522248 0.114695944 -0.07352419 0.37735638
0003e0 3a 6f af 3d 8e 28 b0 be 9d 52 cd 3e 6b 31 d0 3d
       0.08566137 -0.3440594 0.4010209 0.10165676
0003f0 ba 82 76 3e dc 2d 56 bd 83 6f 4f 3b d1 43 aa 3e
       0.24073306 -0.05228983 0.003165216 0.33254865

model.encoder.in_layer.convs.1.lin_r.bias f4 [64]
000000 bb b4 07 3f 6d 7e ee bd d0 2e 36 3e 7b 7a 5d be
       0.5301015 -0.116452076 0.17791295 -0.21628754
000010 5f a9 8b 3e ec 80 b3 bd a9 a7 3f 3e 94 0b 58 be
       0.27277657 -0.08764824 0.18716301 -0.21098167
000020 e9 57 4e bd 0f 16 3b bd 51 a2 32 3e 31 30 14 be
       -0.050376806 -0.045675334 0.17444731 -0.14471509
000030 6a 61 69 3d 37 3e 7b 3d 7e f1 91 be 15 d7 2b 3e
       0.056977667 0.06133863 -0.28504556 0.16781266
000040 d6 6e 15 bd 99 8b 56 3d 83 0a 8c bd 95 ec 06 be
       -0.036482655 0.052379224 -0.068379425 -0.13176186
000050 f1 4c db 3c 07 38 76 3e 26 df df 3d 67 1a 8f 3e
       0.026770087 0.2404481 0.10931234 0.2794983
000060 ac 4b 90 be 62 e1 d6 3d 12 a9 33 3e 27 78 44 3e
       -0.28182733 0.10492207 0.17544964 0.1918646
000070 a2 d3 ed bd f0 69 91 bc 6f 30 72 3e 03 d9 a3 bd
       -0.116126314 -0.01775071 0.23651288 -0.08000376
000080 05 89 91 be 08 cd 4d be 98 6f b6 3d a5 39 f2 be
       -0.2842485 -0.20097744 0.089080036 -0.47309604
000090 25 63 90 bc c2 23 15 3d e7 8f 37 3e f3 76 0c 3e
       -0.0176254 0.036411054 0.17925988 0.1371725
0000a0 7f 35 c6 3c 23 18 a2 be b1 e7 42 bd 9d d7 39 bc
       0.02419543 -0.3165904 -0.04758424 -0.01134291
0000b0 aa c0 0f 3c 4d 48 63 3b 00 17 29 3e 79 63 40 3e
       0.008773962 0.0034680546 0.1651268 0.18787946
0000c0 26 94 1d 3d 72 4f 94 bd 16 a3 78 bd df 45 d4 bd
       0.038471363 -0.072417155 -0.060702406 -0.10364889
0000d0 64 72 2d 3e 2c c2 1c be 49 f1 40 3e 9b 4e 8a 3e
       0.16938168 -0.15308446 0.18842043 0.27013096
0000e0 bc f1 19 3e 6c c2 04 bc 70 c0 01 3e e3 00 b1 be
       0.1503362 -0.008102994 0.12671065 -0.3457099
0000f0 44 b3 29 3e fd 1e d7 3d 45 2d f7 bd d7 6a d0 3d
       0.1657229 0.105039574 -0.12069181 0.10176628

model.encoder.in_layer.convs.2.att f4 [1, 1, 64]
000000 cf af 5f 3f f0 8f b0 be 9f bd 91 3f 50 36 9a bf
       0.8737764 -0.34484816 1.1385993 -1.2047825
000010 31 90 07 3f 51 81 bc 3f 52 77 fd 3e b3 cc 46 3f
       0.52954394 1.4726964 0.49505097 0.77656096
000020 ff 9a 5a bf 93 df bd be 98 48 8c bf 82 32 2c bf
       -0.85392755 -0.37084636 -1.0959654 -0.6726457
000030 50 3a 8f be 43 d0 2a 3f 99 a9 26 3f fe 04 2c 3f
       -0.27974176 0.6672403 0.65102535 0.6719512
000040 79 f2 a0 3e 9b af 84 3f 6d 4f 1c 3f b8 30 39 bf
       0.31434992 1.036609 0.61058694 -0.72339964
000050 d4 25 93 3e f5 1a 07 be d4 58 68 bf 2f a0 7e bf
       0.28739798 -0.13193877 -0.9076054 -0.9946317
000060 b0 a1 4e bf 00 b0 18 bf 63 4b 22 bf 04 a3 56 bf
       -0.80715466 -0.59643555 -0.6339628 -0.8384249
000070 3f 9c 0a 3f 5b c6 a9 3f b8 35 b1 be 4b cc a1 3f
       0.5414466 1.3263658 -0.34611297 1.264047
000080 2f a5 0f 3f f6 e2 9a 3f 87 b1 98 be 17 21 a8 bf
       0.56111425 1.2100513 -0.29822943 -1.3135098
000090 05 1a 24 bf e5 a6 0f bf 53 fd 50 3f 44 fd 8e 3f
       -0.641022 -0.56114036 0.8163654 1.117104
0000a0 0d 2e 0e bf ae a0 f6 3e 55 be 13 bf a5 64 93 3f
       -0.5553902 0.48169464 -0.577123 1.1515089
0000b0 3e 6c 6f bf 51 8c 2c 3f ab ed 46 3f 97 1d 40 3f
       -0.9352454 0.67401606 0.777064 0.7504515
0000c0 44 34 a1 bf 9f d9 d9 3e b5 e5 68 bf 51 21 2b bf
       -1.2594075 0.42548844 -0.90975505 -0.6684771
0000d0 f4 71 ba 3d e7 5c 2b 3f 75 ab 8a bf 12 f2 13 bf
       0.09103766 0.6693863 -1.0833575 -0.57791245
0000e0 82 57 70 bf 89 eb ac 3f a4 c0 8d bf 40 05 1b bf
       -0.93883526 1.350938 -1.1074414 -0.60554886
0000f0 8f 12 0d 3f d2 6b 80 be 1c 88 80 3f 68 28 c6 be
       0.55106443 -0.2508226 1.0041537 -0.38702703

model.encoder.in_layer.convs.2.bias f4 [64]
000000 2b 5c c5 bd e3 a7 54 bd ff 27 10 be 99 72 37 be
       -0.0963672 -0.05191792 -0.14077757 -0.1791481
000010 e1 c3 33 bd 0c 06 9b bc b4 cc 2e 3d 4c ec a6 bc
       -0.043887977 -0.018923782 0.04267569 -0.020376347
000020 fa a6 90 3c 49 08 33 3e c8 1f fd 3d 38 a8 e4 3d
       0.017657746 0.1748363 0.123595774 0.11164898
000030 70 f9 3f bc 3e 2f 51 be d6 d4 8b 3c e3 f8 88 3d
       -0.011717185 -0.20428178 0.017069262 0.066880964
000040 a3 3f 2b 3d c6 ec 8b 3d 8f cf 3d 3b 70 38 d6 3c
       0.041808736 0.0683227 0.0028962826 0.026149958
000050 61 be 03 be b2 21 d6 bc eb 7a 16 3c 4d dd 8c be
       -0.12865593 -0.026139114 0.009184579 -0.2751259
000060 12 2e a9 bc 70 43 01 be 7c 9d 32 3c cd 32 f2 3d
       -0.02065185 -0.12623382 0.010901805 0.11826096
000070 6b 53 07 3e 6e 51 a9 bd aa cf 9e 3d 83 8b 0f be
       0.13215415 -0.082674846 0.077544525 -0.14018063
000080 2c da e1 3c b4 eb 1e 3e 2a 5f 3f 3d a6 cd 34 3e
       0.027569853 0.15519601 0.046721615 0.17656574
000090 8d 2f 58 3d 18 a7 8b bd 95 3a 06 3e e0 d2 43 bc
       0.052779723 -0.0681898 0.13108285 -0.011952132
0000a0 3a 3d de 3d 01 01 5c 3d 22 44 b9 3c 9b dc 13 3d
       0.10851522 0.053711895 0.022615496 0.036099058
0000b0 df ae 0c bd e2 bb 22 bc 2b fc 4f 3d 70 75 2c be
       -0.034346458 -0.00993249 0.050777595 -0.16841674
0000c0 20 b0 9c 3d b0 3e 11 be e0 e3 95 3d 67 83 5f 3e
       0.07650781 -0.1418407 0.07318854 0.2182747
0000d0 1b 1b 38 3d f8 32 81 3e 3a 6f c9 3c a7 4f 8b bd
       0.044947725 0.252342 0.02458917 -0.06802302
0000e0 81 97 5b 3e 4d 7f c8 3d 1a 4b 2e 3e 5e 01 95 be
       0.21444513 0.09789906 0.17020836 -0.29102606
0000f0 d9 c0 00 3d 14 7b c9 3d 4a ec 2c 3d 25 76 21 bd
       0.031433914 0.098379284 0.04221753 -0.039419312
